Snake3D/Assets/Snake_4/Snake/checkpoint.pt (torch, 443947 bytes, 44 tensors)

network_body.observation_encoder.processors.0.normalizer.running_mean f4 [6]
00000000: 626c d03e a9ff ffbe 4a46 8e3f 7d64 693a
00000010: 0000 0000 9aa4 3bbb
0.4070769 -0.4999974 1.11152 0.00089032185 0.0 -0.0028632046

network_body.observation_encoder.processors.0.normalizer.running_variance f4 [6]
00000000: 4a37 334a aaff 9f3f 7d4b dc49 1636 4f43
00000010: 0000 803f c26f f243
2.9362745e+06 1.2499897 1.8046556e+06 207.21127 1.0 484.8731

network_body.processors.0.normalizer.running_mean f4 [6]
00000000: 626c d03e a9ff ffbe 4a46 8e3f 7d64 693a
00000010: 0000 0000 9aa4 3bbb
0.4070769 -0.4999974 1.11152 0.00089032185 0.0 -0.0028632046

network_body.processors.0.normalizer.running_variance f4 [6]
00000000: 4a37 334a aaff 9f3f 7d4b dc49 1636 4f43
00000010: 0000 803f c26f f243
2.9362745e+06 1.2499897 1.8046556e+06 207.21127 1.0 484.8731

network_body._body_endoder.seq_layers.0.weight f4 [128, 6]
00000000: 1ca9 f7bd 53ba f9bd 3f53 bf3e 35c6 d6bd
00000010: cd28 783f 294b 9b3d 4fd9 23bc 0b54 70be
00000020: 659b 24bf 1c13 e7be c3ab 0bbf 0f87 0abd
00000030: 3ac5 a4bb 1af8 c23e ebb2 5a3c 0ad3 023d
00000040: ba40 073f 5cca ebbc e620 003e 96a3 093f
00000050: 7685 df3d baff dcbe cc9a 123f a0c3 81be
00000060: 820d 63be 2a09 a7be 80f4 fabe ce00 5abe
00000070: 4475 ae3d 12f4 99bd 6ae7 7e3e 1e3a c03a
00000080: 09f7 923d 84e6 edbc bf88 94be bce3 cdbe
00000090: cbcf d03e 8fc7 8ebe 8061 1abe 77b7 9dbf
000000a0: 6860 5d3c bdcc 70be 8343 babd 3feb 0b3f
000000b0: 2934 923e 06f4 e03e 91b6 00be 99ed f23d
000000c0: b850 00bf 5d28 d23c 2ff7 83bd 004e 3a3d
000000d0: be2f 1fbd 0909 033e 51f0 f03d a21f 28be
000000e0: 3134 ec3e 1518 07bf 9fcf 51be 72d1 e93e
000000f0: e2cb 1d3e cef9 7fbe 90aa b4bd 152f 06bf
00000100: 633e 5b3e 5f59 dc3e 2df2 a33f 126c 8b3d
00000110: 4e7c f1be 80d4 11bf 269c 14bf a40e da3e
00000120: a573 f4bd 28a7 edbc 807e cb3e b565 3a3f
00000130: a79e 1a3e 8cc1 a0be fdab 9fbc a43a 063f
00000140: 8339 abbe ef8e 57bf f670 2dbf baa9 0dbf
00000150: e941 1bbf e2fc 55be 4aa5 7dbe 6ae9 1b3e
00000160: 2809 85be 781e 14be 7ee0 86bd 06bb 6b3e
00000170: 1244 c63d 72c9 b2bb ea81 e13e 692d a23e
00000180: e9b2 613e b104 e5bd bfa7 e6be e90b 563e
00000190: b6fc e53c b339 96bd 05f3 cbbe f1ba 07be
000001a0: d897 bfbe fa78 0a3f d63d 703a 11bd 30bd
000001b0: 2294 d83e 5ff2 a73e 9f9a d93e 442a c93e
000001c0: d74c 133f ac06 afbd 1b03 523d 0915 893e
000001d0: 6ec5 223f 46ef b2be 4068 ba3e f2aa 2a3e
000001e0: faad a9be 3862 10bf 403f 923d 4da0 2f3f
000001f0: b3ba c73e a574 dfbc c829 47be ae33 b4be
00000200: 45a9 f1bd 8c12 383e c44e d2be f419 033f
00000210: 2087 2a3f e184 833e ae68 8f3e cfa0 b63e
00000220: 46a7 0f3e 050d 6d3e 280e 3abd 8874 debe
00000230: 615b 40bf 8340 42bc 1c20 8a3c 3b84 2a3f
00000240: 40fa 2ebe de42 5b3e 8cbb 9f3e a6c6 ce3e
00000250: 2bf7 80be c5eb 1f3e d04a 42bd 7d2d 25bf
00000260: 4564 3cbd c15b f23d 5017 7ebe f373 6cbe
00000270: 78c1 3dbc 74fb 47bf b361 2c3d a708 efbe
00000280: a676 93be d417 02bf 228f e83e f83a 403d
00000290: e4ef 463e 6f3c c6be ad88 1bbf 1f74 eb3e
000002a0: 4325 d8be 96ac d0be dfc9 eb3e abb2 19bf
000002b0: ebec 413d 432e 873e 7285 78be bbb4 b5be
000002c0: 57d9 0ebe 499d 88be d674 4c3e ba2d 25bf
000002d0: 14b5 d23e ba5f 6e3e 83eb a8bd 8a10 953f
000002e0: 7c5c 173f 81e2 87bd 1238 3c3f ef09 fbbe
000002f0: 6b1b a2bd c8e9 23be a240 acbe eeb8 d43b
00000300: 0b41 0bbe b776 3bbf bee3 b8bd ab4e 11bf
00000310: 99ce 163f f782 8fbf d177 1cbe 4b3c d9be
00000320: 623a 9b3e 9f00 9f3e f044 11be e49e d8be
00000330: 986f 02be 34e5 68be a934 17b9 31ef b6be
00000340: a774 d03e b4c4 4e3e 3ad8 abbe 67ac 33bf
00000350: 753f c03d ebfa adbe b58c 413e 0e84 fcbe
00000360: 1244 a5bd 24a8 153f b188 bc3e c1c7 db3c
00000370: 7280 9bbe 90ba 403f 0bcf 1dbd 381f 95be
00000380: 90c5 743f da61 363f aded 8dbe ea4b 3ebf
00000390: aa5b a23e 37f4 bb3e 3744 263d 6159 b6bf
000003a0: 4e21 40bf a006 cbbd c4e3 7b3e de2e 4d3d
000003b0: 6c2a 59be a4a5 043e f261 9fbe c057 08bf
000003c0: 61de b9be 9fb6 49bd f3ed a9be 44bd b73e
000003d0: 2551 073f 11e7 08be 23a5 c2be 8066 debd
000003e0: aa64 43be 41a5 72be 7b7b b23e 19fa 913e
000003f0: 4587 cfbd d1a5 c33e 0367 c93e 896c 80be
-0.12092802 -0.12193742 0.373682 -0.10487024 0.9693726 0.07582695 -0.010000541 -0.2346956
-0.64299613 -0.45131767 -0.5455896 -0.03382021 -0.005028394 0.3807991 0.013348321 0.031939544
0.5283314 -0.028783016 0.1251255 0.5376524 0.109141275 -0.43163854 0.5726745 -0.25344563
-0.22173122 -0.3262418 -0.49014664 -0.2128937 0.085184604 -0.07517256 0.24892965 0.0014665758
0.071760245 -0.029040582 -0.2901058 -0.4021281 0.40783533 -0.27886626 -0.15076256 -1.2321614
0.013511755 -0.23515601 -0.09094908 0.5465583 0.2855542 0.43936175 -0.12569644 0.118617244
-0.5012317 0.025654012 -0.06443631 0.045484543 -0.03886389 0.12796415 0.11764587 -0.16418317
0.4613357 -0.5277112 -0.20489357 0.45667607 0.15409806 -0.24997637 -0.08821595 -0.5241559
0.21410517 0.43036935 1.2808281 0.06807722 -0.4716515 -0.56964874 -0.58050764 0.42589295
-0.1193612 -0.02901037 0.3974495 0.7281144 0.15099584 -0.31397665 -0.01949119 0.5243323
-0.33442315 -0.84202474 -0.6775049 -0.5533711 -0.60647446 -0.20897248 -0.24770084 0.15225759
-0.25983548 -0.14464748 -0.06585787 0.23020563 0.09680952 -0.005456143 0.4404443 0.3167527
0.22040905 -0.111825354 -0.45049855 0.20902981 0.028074604 -0.07335224 -0.39833847 -0.13254906
-0.37420535 0.54090846 0.0009164488 -0.043149058 0.42300516 0.32802102 0.4250078 0.3929006
0.57539123 -0.085461944 0.051272493 0.2677386 0.63582504 -0.34948176 0.3640766 0.16666773
-0.33140546 -0.5639987 0.0714097 0.68603975 0.39009628 -0.0272773 -0.19449532 -0.35195678
-0.11799864 0.17975825 -0.41075718 0.51211476 0.66612434 0.25687316 0.28009552 0.35669562
0.14028654 0.23149498 -0.045423657 -0.4344828 -0.75139433 -0.011856201 0.016861014 0.6660802
-0.1708765 0.21412227 0.31197774 0.40385932 -0.25188574 0.15617283 -0.047434628 -0.64522535
-0.045994062 0.11833907 -0.2481358 -0.23091106 -0.011581771 -0.7811806 0.04208536 -0.4668629
-0.2880146 -0.5081761 0.45421702 0.046931237 0.19427449 -0.38717982 -0.60755426 0.4598703
-0.42215928 -0.40756673 0.46052453 -0.6003825 0.047345083 0.26402482 -0.24269655 -0.3548945
-0.13950096 -0.266825 0.19966444 -0.645229 0.41153777 0.23278704 -0.08248045 1.1645672
0.59125495 -0.06634999 0.73523057 -0.49031016 -0.07915386 -0.16007149 -0.3364306 0.006491772
-0.1359903 -0.7322802 -0.090278134 -0.5676066 0.58908993 -1.1211842 -0.15280081 -0.42428812
0.3031798 0.3105516 -0.14186454 -0.42308724 -0.12737882 -0.22743684 -0.000144201 -0.35729364
0.40714 0.20192224 -0.33563405 -0.7018494 0.093871035 -0.33980498 0.18901332 -0.493195
-0.08069624 0.5845969 0.36823037 0.026828649 -0.30371433 0.7528467 -0.03852753 -0.2912538
0.95613956 0.7124306 -0.27720395 -0.74334586 0.3171056 0.3670976 0.0405924 -1.4246026
-0.7505082 -0.09913373 0.24598604 0.050093524 -0.21207589 0.12953812 -0.31129414 -0.53258896
-0.36302474 -0.049246427 -0.33189353 0.35886586 0.5285819 -0.13369395 -0.38016614 -0.10859394
-0.19081369 -0.23695852 0.34859833 0.28511122 -0.101332225 0.38212445 0.39336404 -0.25082806

network_body._body_endoder.seq_layers.0.bias f4 [128]
00000000: 29b6 f0bc 98f9 3d3d e427 2cbd ad66 c93b
00000010: ee27 cbbc dc6c 1dbd 00fc 233b 1cf6 d9bc
00000020: 9fd5 64bd fef3 03bd cbc8 36bc b3e8 b7bb
00000030: c147 21bc 5066 7a3d cd6c 33bc 03a4 8cbc
00000040: d0af 803b 59fe 9dbc 998d 0fbc d710 0ebd
00000050: 4b6c d8bc 4342 06bd 4734 99bb f724 3d3c
00000060: 706d 1f3c 6157 153c b0fa 163d 38cd 85bc
00000070: d1fe 0ebd c0e0 beba 19c8 0239 1c88 13bd
00000080: ee92 223d feaa 10bd 4006 8fbc 2eb5 68bd
00000090: d660 38bc 15ee 65bc dd55 193d b379 03bd
000000a0: 4414 32bd 8e73 453c d295 26bd e65f 11bc
000000b0: 00ad c9bb a407 993b 76d6 9f3b a7b2 3c3d
000000c0: a5e0 04bb 984b 00bd c78a 1fbd 5f0c f0bb
000000d0: 618e 5a3c d88f 83ba e3f8 fa3b e75a e03b
000000e0: fe07 c2bc 8767 bfba 99f0 06bd 29ea d8bc
000000f0: 1f16 c9bb 1e32 883c 517d 8c3c 9070 18bd
00000100: f51f 0b3c aab2 ee3b a436 b9bb 3d81 fabc
00000110: 4a35 b1bc b58f 183c d18d 93bc 3b9e db3b
00000120: 559e 5e3b 7db1 e03b 47bd b7bc 4c87 59bd
00000130: 11eb ea3a bb5a 46bd f0c0 78ba 98f3 f8bc
00000140: 0d92 9cbc 38e8 833c 6329 66bd 77e0 d33c
00000150: 1106 88b8 f9a5 1e3c f385 8dbc 8834 7ebc
00000160: bf94 3a3a cdca 14bd 00bc 613c 20ee 07bd
00000170: 4292 5fbc f681 91bb 428e c83b c44b 0e3c
00000180: 619e 873b ee83 2d3d 7c87 71bb d63c 12bd
00000190: 4e98 dc3b 6525 8dbb 5aaa bebc 3078 7bbc
000001a0: b907 87bc f408 2fbc 20c6 0c3d 68f0 a9bc
000001b0: 694b ca3b 322c 2d3d 4039 3bbd c47c e23b
000001c0: 9c83 063d 4166 513c 4eaa 61bd 9df5 d43c
000001d0: cc23 a8bc d876 e13b def6 d8bc 8c80 adb9
000001e0: f7a3 09bd b4d8 a03c 556e 503d 794d 273d
000001f0: 320b 003d 7edc b6bb 53d9 fcbc 490d ecbb
-0.029383736 0.04638061 -0.04203023 0.006146273 -0.024799313 -0.038433895 0.002502203 -0.026606612
-0.055867787 -0.03221511 -0.011156271 -0.0056124567 -0.009843768 0.06113273 -0.010951233 -0.01716805
0.0039272085 -0.019286321 -0.008761787 -0.03468403 -0.026418826 -0.032778036 -0.0046754214 0.011544458
0.009730682 0.009115071 0.036860168 -0.016333207 -0.03491098 -0.001456283 0.00012472308 -0.036018476
0.039690904 -0.03531932 -0.017459035 -0.05681341 -0.011253556 -0.014033814 0.0374354 -0.032098483
-0.043476358 0.012051476 -0.040670224 -0.008872962 -0.0061546564 0.0046701003 0.0048778607 0.046068814
-0.00202755 -0.03132209 -0.038950708 -0.0073256935 0.01333961 -0.0010037376 0.007659064 0.006846774
-0.023685452 -0.0014602997 -0.032944296 -0.026478844 -0.0061366702 0.01662546 0.0171496 -0.037216723
0.008491506 0.007284482 -0.0056522656 -0.030579204 -0.021631856 0.009311606 -0.01801196 0.006702212
0.0033968885 0.0068570958 -0.022429122 -0.053107545 0.0017922838 -0.04842637 -0.0009489199 -0.030389592
-0.019112611 0.016101941 -0.056191813 0.02586387 -6.486115e-05 0.009683126 -0.017275786 -0.015515454
0.0007117502 -0.03632622 0.013777733 -0.033186078 -0.01364571 -0.0044405414 0.006120474 0.008685056
0.0041387533 0.042362146 -0.0036854437 -0.03570255 0.0067320233 -0.0043074363 -0.02327459 -0.015348479
-0.016483175 -0.010683287 0.034368634 -0.020744517 0.0061735404 0.042278476 -0.045708895 0.006911846
0.032840356 0.012780727 -0.055094056 0.025996024 -0.020524882 0.0068806224 -0.026484903 -0.00033092906
-0.033603635 0.019634582 0.05088647 0.040845368 0.031260677 -0.005580484 -0.030865347 -0.007203732

network_body._body_endoder.seq_layers.2.weight f4 [128, 128]
00000000: a679 b93d f73a bc3d fd6c e7bd d443 56bc
00000010: 7e2e 493b ed67 da3c 1210 203d 37e6 3fbc
00000020: cf92 913d 5930 e43a c770 963c 3eb5 06bd
00000030: 17eb edbd 4efe 9bbd c72c 90bd 4348 08be
00000040: 0ded 71bd 39fd 3e3d 261d 83bd e672 e7bd
00000050: a326 acbc 606d 483c a068 773c 66d1 853d
00000060: 7b02 363b 2370 833d 5697 edbd 2748 803e
00000070: 105c a63a 3ff1 b63d 6ee1 e1bb e802 8cbd
00000080: 118b 57bd 7047 d13c 66a6 c1bd ad24 3dbd
00000090: b6c2 4d3d be06 b9bd adbb acbd 40da dfbd
000000a0: 4b78 8ebd 7f8a d7bc 200e dc3c a66c 0fbd
000000b0: 29d2 d13c 16ce 253e 4c99 953d 21a7 96bc
000000c0: 7f2a fcbc e111 0c3e 1142 8ebd e49c 833c
000000d0: 52a8 c03d a415 a5bc 9987 7a3e b05e a2bd
000000e0: be15 af3b e053 d53c 9680 0c3d 1039 033d
000000f0: 9389 b53d bc83 913c a8e1 a4bd b5bc 1abe
00000100: 110d 313c 835e 0fbe eaba 1d3c 8da6 93bd
00000110: 688a cb3d f863 4d3d 4279 84bd 8f9d abbd
00000120: 8e0e e43d efdd 96bd c570 d83c 8f7e 09bd
00000130: 7840 99bd 7887 17bd 8be0 aebd c4e9 79bd
00000140: 65a9 1dbd a789 323d e7b8 013d 7939 fc3c
00000150: ef3b 1fbe 882f e53c 6261 1bbe 39fe dc3b
00000160: 5988 a93c 4cbc 92bc 4773 80bd f5fa a0bd
00000170: c2d5 c33d 9f79 bfbd a78c 02bb 743d f43d
00000180: ba88 30bd fa0c 313e 6881 fabb 6baa 61bd
00000190: d014 9dbc d3d0 7c3d e360 01be 694b 9bbd
000001a0: eb19 443e 7c57 80bd 3c04 d03c a922 e3bc
000001b0: c31c 07be f3fb 30bc 9557 0f3d 0e5f 85bd
000001c0: 4b99 5b3d 6c5f 4f3d 26a8 98bd 02e7 9e3b
000001d0: cc3d 94bd 4d10 d6bd 2e67 3b3d 296a 953c
000001e0: 74b6 32be 8580 963d e6fe 63bc 9142 073e
000001f0: be60 d23d 291f 4abd 377c 3fbd 4b7f 52bb
00000200: 657b 443e a994 43bd 8194 cb3c 46c0 36bc
00000210: f118 21bd 94b0 cdbc d4ca 0cbc f51e c1bc
00000220: c3de 90bc 4bb5 253d 7be9 ec3b 351f 0f3d
00000230: 406a 1dbe c5ee 9ebd 6f21 a33c a1d6 c5bd
00000240: 1f7b 1a3e 381f fb3c 85cb f3bc e5a6 f03b
00000250: b610 7fbd de45 4a3a 858f 7bbd b381 7fbd
00000260: a1bf 56bd 4fbf 86bd 77fc 353d f651 d9bd
00000270: 1297 c7bb 64bc 173e d072 1fbd ba85 6b3b
00000280: b97b f6bc 49ab 0ebe 870e eebd 52a2 b2bb
00000290: 79c2 ef3c 51ad 133e fa5d 043e a33c 21bd
000002a0: 9bf4 c23d 7b15 e1bc 2aa0 e53d 0fd0 f5bc
000002b0: 0672 d7bc 07aa e73d 53fe f33c 046e 513d
000002c0: aef8 043e 7796 fbbc fdc7 dd3d f7b6 74bd
000002d0: fc06 e13d 3dd5 b5bc d3ca c63d f54a 3dbd
000002e0: 8546 f33d 6d6c 25bd ee28 fabb b671 9e3d
000002f0: 91db 67bd a77a 5bbd fb08 5a3d 074f 353d
00000300: b94d 2cbd 78eb 74bd e522 593d 57b6 823d
00000310: f7c2 7ebb dca2 94bc 931a 9a3d a020 1dbe
00000320: 7374 cb3c d24c c73c 53d1 6fbd 5e34 463d
00000330: 8538 24be 76b0 95bd de1c fdbd c379 17bd
00000340: 3888 c53d 7654 dc3d 0fbb dd3d f18b 94bc
00000350: f23a 8a3d 234a 74bd d395 373c ac51 be3d
00000360: 59dc 263c 2a05 f8bc 4b1b 86bd 5169 59bd
00000370: e71a b2bd fea8 97bd 4100 0c3e 317a eabc
00000380: 1b72 493c 2dbe 063e 5e30 9dbd 9dac debd
00000390: c02a bebd ad2c 853d a2f8 cebd 94aa 3b3d
000003a0: c01d 163e 40bb f2bd fb84 5e3d 37dd 323e
000003b0: 9399 bd3c 101e 74bc 4576 60bc de6e 3f3d
000003c0: b1ad 97bc c712 293c 5fcc 8c3d b2fa 693d
000003d0: d1c9 ce3c 804f d03d 850a 9dbd 6cc8 5fbe
000003e0: 3eb3 c0bc f2b4 873d fbde b03d 265b 02bd
000003f0: cbdd 323d d08a c7bd 72cc 193c 0f94 33bd
0.09056406 0.09190934 -0.11300085 -0.013077695 0.0030697878 0.026660884 0.039077826 -0.011712602
0.0710808 0.0017409428 0.018364323 -0.03288769 -0.116171055 -0.07616864 -0.070397906 -0.13308816
-0.05906396 0.04662821 -0.06402044 -0.11301212 -0.021014517 0.012233108 0.015100628 0.0653408
0.0027772475 0.06417873 -0.11601131 0.25055048 0.0012692232 0.08932733 -0.0068933284 -0.06836492
-0.05262286 0.02554676 -0.09455566 -0.046177555 0.05023452 -0.09034489 -0.08434234 -0.109303
-0.06956538 -0.026311157 0.026862204 -0.035015725 0.025612907 0.16191897 0.0730463 -0.01839024
-0.030781982 0.13678695 -0.06946195 0.016066022 0.094071046 -0.02015192 0.24465789 -0.079282165
0.005343168 0.026040971 0.034302317 0.03203684 0.08864131 0.017763011 -0.08050853 -0.15111049
0.010806338 -0.14000897 0.009627083 -0.072095014 0.09938508 0.050144166 -0.064684406 -0.08379661
0.111355886 -0.07366549 0.02642096 -0.03356796 -0.074829996 -0.036994427 -0.08538922 -0.061013952
-0.038491625 0.043588307 0.031670477 0.030789124 -0.15550207 0.027976766 -0.15173867 0.006744173
0.020694898 -0.017912053 -0.062719874 -0.07860366 0.095622554 -0.09349369 -0.001992026 0.11925784
-0.043099143 0.17290106 -0.007644821 -0.055094164 -0.019174963 0.061722588 -0.12634616 -0.07582743
0.19150512 -0.06266686 0.025392644 -0.027726488 -0.13194565 -0.010802257 0.034995634 -0.06512271
0.05361299 0.05062811 -0.07453947 0.0048493156 -0.07238349 -0.10452328 0.045752697 0.018239098
-0.17452413 0.07348732 -0.013915753 0.13208987 0.10272358 -0.049346123 -0.04674932 -0.003211933
0.19187696 -0.047749195 0.024851086 -0.01115424 -0.039330427 -0.025108613 -0.00859328 -0.023574332
-0.017684346 0.040456098 0.0072299815 0.03494187 -0.15372562 -0.077603854 0.019913403 -0.09660078
0.1508603 0.030654535 -0.029760132 0.007344114 -0.062271796 0.00077160995 -0.061416168 -0.06237955
-0.052428845 -0.06579458 0.044430222 -0.10611336 -0.006091007 0.14817959 -0.038927853 0.0035937862
-0.030088292 -0.13932528 -0.116238646 -0.005451479 0.029267536 0.14421584 0.12926474 -0.03936447
0.09519311 -0.027476063 0.112121895 -0.030006437 -0.026299488 0.11311727 0.029784357 0.05113031
0.12985489 -0.030711396 0.1082916 -0.0597448 0.1098766 -0.022196406 0.097066544 -0.046214063
0.11878685 -0.040386606 -0.0076342737 0.077365324 -0.05660588 -0.053583767 0.05323122 0.04426482
-0.04206631 -0.059794873 0.053011794 0.06382435 -0.0038873532 -0.018144064 0.075246 -0.15344477
0.0248358 0.024328623 -0.058549237 0.048389785 -0.16037185 -0.07309048 -0.123590216 -0.036981355
0.09645122 0.10758297 0.10826694 -0.018133136 0.06749524 -0.059641015 0.0112051545 0.092929214
0.010184371 -0.0302759 -0.065481745 -0.053078953 -0.086965375 -0.074052796 0.13671972 -0.028622719
0.012295271 0.13158484 -0.07675241 -0.10872767 -0.09285498 0.06502662 -0.10106017 0.045816973
0.14659786 -0.11852121 0.05432604 0.174672 0.023144519 -0.014899746 -0.013700073 0.04673659
-0.01851544 0.010319418 0.06874918 0.057123847 0.025242718 0.101714134 -0.07668022 -0.21853799
-0.02352297 0.066263095 0.0863628 -0.031825207 0.04366855 -0.09743273 0.0093871225 -0.04384237

network_body._body_endoder.seq_layers.2.bias f4 [128]
00000000: 3c95 963c 5d35 9fbd 9933 0e3b 3eb1 00bd
00000010: c9b4 06bd 3932 06bd 1f0b 3dbc 7432 053c
00000020: cb2b 47bc faa2 10bd ab97 483c 20d4 323d
00000030: 233a 4d3c bcf5 ecbc 54e9 6fbc d4b2 c03b
00000040: 718e 85bc 05ac 1e3c eee7 09bd 409a a6bc
00000050: fc48 f6bc 8e85 bbbc 2a5d 193c bd4c 23bc
00000060: edfb 2a3c e8ce f1bb 0401 86bc 13a8 5c3c
00000070: 4879 c63c d0b9 20bd 1537 0e3d e61c 80bd
00000080: 71b9 fabc 0651 803c c503 82bc e806 13bc
00000090: 943e 073d cddf 2d3c eb01 373c dad0 f6bc
000000a0: 680f 3abc 2be0 fdbc 35ac 163d bdb7 e43c
000000b0: cc42 26ba 66a3 9cbc 0532 09bd 24f5 e4bc
000000c0: 3b18 9abc 66a6 03bd f04c 323c b86c ac3c
000000d0: e155 493c c0af 653d 90a6 4c3d 0e7e 603c
000000e0: 6082 ddbb cb4b 813d 5b69 a5bb e892 c2bb
000000f0: e861 273a 0f5c ba3c 0ce2 ec3c 77c8 983c
00000100: da92 483b 3672 c3bb 9a23 c8bb f1ac 383d
00000110: 630c d7bc c2f5 2b3c 441f 5fbc 321a 813b
00000120: 722d b4bc 5efd 12bd 6c15 06bc 195a 8d3b
00000130: 15fb d8bc 1032 78bc 0b30 d2bb dffb e1bb
00000140: 5094 a8bc eeab 6f3c 28c8 19bb eb0a dcbc
00000150: 9cff bfbb 7658 34bd 3e4e 95bc f6cf 45bc
00000160: 7c83 ddbc 9747 dcbc 1d7f 83bb 6831 303d
00000170: 15d1 0cbd 7295 9d3c bdd6 63bc 14ef 9ebc
00000180: d7f5 083c 49e4 423c 9856 b33c 7a0c f53b
00000190: bea3 8bbc d605 433b 05bc 0abd 7f80 b9bb
000001a0: e959 013d 2d3b 0f3d c9b2 cf3c 0024 13bd
000001b0: 49d7 f2bb 435f ddbc b9be 5d3c a26c 81bc
000001c0: e066 30bd 32a3 c8bc a191 723b e1ef 09bc
000001d0: e841 7a3c b4de ebbb cd5a c7ba b311 04bd
000001e0: 26bc 3abd ca59 15bc 84bf 0fbd 242c 4bbb
000001f0: c8f9 24bd 556d acbc 21f1 073d d51f 143d
0.018381707 -0.0777385 0.0021698235 -0.03141903 -0.032887254 -0.03276274 -0.011538296 0.008129705
-0.012156437 -0.035311677 0.012243192 0.04365933 0.012526068 -0.028925769 -0.014643032 0.005880693
-0.016303273 0.009684567 -0.03366845 -0.020337224 -0.030064099 -0.022890832 0.009360591 -0.009967026
0.01043604 -0.0073794015 -0.016357906 0.013467806 0.024227753 -0.039239705 0.0347205 -0.06255512
-0.030606003 0.015663635 -0.015870938 -0.008973815 0.033018664 0.01061244 0.011169891 -0.030128885
-0.011356212 -0.03099068 0.036785323 0.027919644 -0.0006342351 -0.019120883 -0.033494968 -0.027948923
-0.018810382 -0.03214111 0.010882601 0.021047935 0.0122885415 0.05607581 0.049963534 0.013701929
-0.0067599267 0.063132845 -0.0050479597 -0.0059379227 0.00063851336 0.022748975 0.028916381 0.018650277
0.0030605108 -0.0059645427 -0.0061077597 0.045086805 -0.026251024 0.010495605 -0.013618294 0.0039398903
-0.021994326 -0.03588616 -0.008183818 0.004313719 -0.026486913 -0.015148655 -0.0064144186 -0.0068964805
-0.020578533 0.014628394 -0.002346525 -0.026860675 -0.0058593284 -0.044029675 -0.018225785 -0.0120735075
-0.027040236 -0.026889605 -0.004012956 0.043015867 -0.034379084 0.0192363 -0.013906178 -0.01940111
0.008359394 0.011895248 0.021891877 0.007478294 -0.017045852 0.0029758117 -0.033870716 -0.00566107
0.031579886 0.034968544 0.025353806 -0.035923004 -0.007410918 -0.027022963 0.013534241 -0.01579887
-0.04306686 -0.02449188 0.003701307 -0.008419008 0.015274502 -0.007198179 -0.0015209556 -0.03224344
-0.04558959 -0.009115646 -0.035094753 -0.0031001652 -0.040277272 -0.021048227 0.033188943 0.03616317

action_model._continuous_distribution.log_sigma f4 [1, 2]
00000000: 730f 653a a6b0 273d
0.0008737959 0.04093995

action_model._continuous_distribution.mu.weight f4 [2, 128]
00000000: 3246 debb b902 da3a aca4 d6ba dfb5 113c
00000010: bdae 793b 4ee8 423b d4a3 00bb 49db debb
00000020: 3b8b 513b 2f80 dd3c bea8 68bc 000f fbbc
00000030: 2f8e bfba 1da6 e13a 874b 62b9 27e3 dfbb
00000040: dbb2 85ba d18d 95bb 9b91 d13b c4d9 433a
00000050: 522a 983c 9f4b e23b c91e 00bd a311 42bb
00000060: 6c54 1bbc a87b e53b 4859 d9ba 60d3 923b
00000070: 0668 90bb 35e8 8f3b 4310 3bbb 83c9 7d3b
00000080: 0165 cf3b 7060 08bd e3c1 ef3b 86d9 e0ba
00000090: 19f1 42bb 9677 ccbc d890 85bb d3d7 8d3c
000000a0: 70be ce3b ac7e 5e3c b322 b7bc 2bf7 60bc
000000b0: d612 23bb 992c 893b 46e7 273b 0e47 6b3a
000000c0: 95af b03b 795b 9f3b 856c 4fbc 104c 423a
000000d0: 7b01 0dbb 372a 2fbd fb4b 85bc 96d8 1dbc
000000e0: 3b50 26bb fedf 52bd 6bf5 48ba b5ca 843b
000000f0: f8b0 b5bb fccb 1fbc ada2 9dbb 2e6a b6ba
00000100: 640c 1cba 1b49 fdb8 fd9d 52b9 5f7b 1cbc
00000110: 9a30 6d39 d478 883a 8b5f 533b 5a56 c9bb
00000120: 2e8f d23b 7aef 04ba b3b9 663b ec0b 9fbb
00000130: 63f3 283b 941b 6838 f4bb 0f3a 22ac 98ba
00000140: 491c 863c e570 d4bb 20da 65b8 8ed3 523c
00000150: 46e8 b2bb 3548 d63b 4690 583b a208 9a3b
00000160: a3f1 043c 380e de3b c732 4cb9 4e60 b8bc
00000170: 1878 0a39 4e22 9abc 5af1 273b 66c4 343c
00000180: 75ac 15bc c682 23bc 6c08 65bc 14c9 0abc
00000190: f1d1 c2b7 0c37 c9b9 621f 913c 8497 16bb
000001a0: 8489 93bc ca78 9cbc c9a8 81bc cf86 913c
000001b0: 8243 b6b8 2191 2c3c 2e88 b0bc bc22 483c
000001c0: c221 3d3b 2730 853a 3eb0 803a 5f10 2d3c
000001d0: 66fa 2f3b 47cd 5e3b c7de 7c3b faea 203d
000001e0: 6468 e335 754c 253a dc9c 923c 3346 533b
000001f0: 0d87 673c d7d3 6d3a 5c69 b2bc 8d2c babc
00000200: 987a 2bbc 6220 b93a 5f74 5a3d 7eb6 cd3a
00000210: 9da1 70bb 0cb3 cf3b d5da 38ba ecaa dabc
00000220: 1eca 223a 4621 b6bc 73fd ca3c d329 013c
00000230: 0df9 b53b 66b2 843a 6a89 5d3b ee64 93bb
00000240: c053 1bbc 9b11 c33c 4a53 d83b 1a84 d939
00000250: bbe5 b5b9 b745 92ba f46d 2f3c e48f ce3b
00000260: c8aa 953c 9da9 603b 19e6 703c 3606 4c3b
00000270: ea72 623b e75e 2e3a 558d d43b d676 d4ba
00000280: 57f4 bbbb 9c0a a2bc 7d00 99ba d690 03bb
00000290: ee7e 0d3c d426 a8bb 4002 37ba a61b 21bc
000002a0: 43a4 bbbc 1e6b 91bb 99d4 6f3c d55a 0a3c
000002b0: 943f de3b 36a9 033b dfc9 60bb 1d52 953a
000002c0: 9453 61bc 30cc 7eba f6fd c7bc 9bee 113c
000002d0: 9fb5 593b e417 163c a82a 593c 043b f6bc
000002e0: c32f 303c 8e57 d33c eb90 f93a 9063 7a3b
000002f0: cf1e 64bc 93d2 f7ba e90e 263c e514 4b3b
00000300: 76d6 7e3b 0e94 53bc 341a 713c 87aa 6d3c
00000310: ea51 c3b8 7460 7fba 144c 893c 1b28 513c
00000320: bd11 28bc ae17 92bb b5cc 88bb 538f c4bc
00000330: ff7e ddba b141 003b cb6e 75bc 736a f8ba
00000340: 99db e43c 3336 543c a2c1 edbc 8738 8cbc
00000350: a44f e03c 1061 22bc 9734 673c 5d28 c8ba
00000360: 35dd 12ba dad9 a13c 2865 0c3c 8157 943c
00000370: 1912 1c3b aaaf 803b 8a1b 603c 351f 0e3d
00000380: 7746 b53c 5b2c 86bc be7b 863c fdea 3a3b
00000390: 0628 cf3b 7290 11bd fc9b 173c 8bfd 8c3b
000003a0: f7f1 ea3c fe1f d43c 0cb1 203d cbff 87b9
000003b0: 6383 bf39 fca8 00bc 77c9 a93c 90de d5bc
000003c0: 72a0 ab3a 920c 223c d83e 0dba 72c7 c5bc
000003d0: 980a adba 7aab c6bb 70ef 813a ffa8 0b3c
000003e0: 68e2 9e3b ff73 b5bc 5069 8fbb b6ba 64bc
000003f0: 149e cd3b 7dde ad3b 1a86 1a3d 422b 9a3c
-0.0067832703 0.0016632891 -0.001637598 0.008893459 0.0038098537 0.0029740515 -0.00196289 -0.006801043
0.0031973857 0.027038662 -0.0142003875 -0.030646801 -0.0014614518 0.0017215643 -0.00021581176 -0.0068324986
-0.0010200398 -0.004564025 0.0063955314 0.0007471109 0.018574867 0.0069059874 -0.03127936 -0.0029612563
-0.009480577 0.0070032664 -0.0016582394 0.0044807643 -0.004406932 0.004391695 -0.0028543628 0.0038724847
0.0063291793 -0.033295095 0.0073168143 -0.0017154671 -0.0029745756 -0.024959367 -0.0040761046 0.017314827
0.006309323 0.013580006 -0.022355413 -0.013730804 -0.0024883053 0.0041862247 0.0025620027 0.00089751265
0.0053920248 0.0048631993 -0.01266015 0.0007411847 -0.0021515775 -0.04276487 -0.016271582 -0.009634158
-0.002537741 -0.051483147 -0.00076659647 0.004052485 -0.005544778 -0.0097532235 -0.004810652 -0.0013917142
-0.0005952774 -0.00012077597 -0.00020086016 -0.009550898 0.00022620187 0.0010411986 0.0032252993 -0.006144327
0.0064257598 -0.0005071085 0.00352059 -0.004853716 0.0025779835 5.5338794e-05 0.0005483024 -0.0011647979
0.01637091 -0.0064831846 -5.4801e-05 0.012867821 -0.005459818 0.0065393695 0.0033044978 0.004700736
0.008114251 0.0067765974 -0.00019473872 -0.02250686 0.00013205444 -0.018815186 0.0025626034 0.011033153
-0.009135355 -0.009979909 -0.013979059 -0.008470792 -2.3224364e-05 -0.0003837872 0.01771516 -0.0022978494
-0.018009908 -0.019100565 -0.015827553 0.017764477 -8.6910106e-05 0.010532648 -0.02154931 0.012215313
0.0028859233 0.0010161445 0.0009818149 0.010562985 0.002685213 0.0033996867 0.0038584934 0.03928659
1.69432e-06 0.00063056435 0.017897062 0.0032237887 0.01413132 0.0009072399 -0.021778755 -0.022726322
-0.01046624 0.0014124031 0.053333636 0.0015694646 -0.0036717423 0.0063384827 -0.00070516515 -0.02669283
0.00062099274 -0.022232663 0.024779057 0.007883507 0.005553371 0.0010123968 0.003380383 -0.0044981157
-0.009480417 0.023812106 0.0066017257 0.0004148789 -0.00034694173 -0.0011159693 0.010707367 0.006303774
0.018269911 0.0034280785 0.014703297 0.0031131632 0.0034553357 0.0006651715 0.0064865747 -0.0016209732
-0.0057359147 -0.01978045 -0.0011673119 -0.0020075343 0.008636219 -0.005131582 -0.0006981231 -0.009833252
-0.022905475 -0.004437818 0.01463809 0.008444508 0.0067824814 0.0020089871 -0.0034300012 0.001139227
-0.013752837 -0.00097197574 -0.02441309 0.008906986 0.0033219827 0.009160969 0.013254799 -0.030057438
0.010753575 0.025798585 0.0019040381 0.0038206317 -0.013923361 -0.001890736 0.010135391 0.0030987796
0.0038885153 -0.012913717 0.01471572 0.014505989 -9.313582e-05 -0.00097418507 0.01675991 0.01276591
-0.010258135 -0.0044583892 -0.0041747936 -0.023994124 -0.001689881 0.0019570405 -0.014980028 -0.0018952623
0.027936744 0.012952375 -0.029022995 -0.017116798 0.027381726 -0.009910837 0.0141116595 -0.0015270818
-0.00056024204 0.0197572 0.008569039 0.018108131 0.0023814498 0.003927191 0.013678441 0.03469773
0.022128327 -0.016378572 0.016416427 0.0028521412 0.00632191 -0.035538144 0.009253498 0.0043026856
0.028679831 0.025894161 0.039231345 -0.00025939787 0.0003652825 -0.007852789 0.020725949 -0.026107103
0.0013094081 0.009890692 -0.00053880876 -0.024142954 -0.001320201 -0.006062922 0.0009913277 0.0085241785
0.004848767 -0.022150038 -0.004376568 -0.013960531 0.006274948 0.0053060637 0.037725545 0.018819455

action_model._continuous_distribution.mu.bias f4 [2]
00000000: c5dc f8bc 6c1d 9fbb
-0.030378709 -0.0048558023

exp_avg f4 [128, 6]
00000000: 6855 0db7 8aba dc31 18e3 5536 06a5 4234
00000010: 0000 0000 229e ccb4 805c 03b8 0803 6a32
00000020: a369 1b38 685b ce34 0000 0000 4cee 58b5
00000030: bc2e 9eb8 120d 9433 6852 a535 288e 0236
00000040: 0000 0000 b03e 89b6 be86 c836 524c 03b2
00000050: adc9 b936 9c90 67b4 0000 0000 fc6d f334
00000060: 729f e7b7 be55 c332 00dc e136 6640 2c35
00000070: 0000 0000 d613 b5b5 a070 f6b5 6871 5e32
00000080: e45e ebb7 0c28 c434 0000 0000 d434 4eb5
00000090: 447f 3e39 cd34 1cb4 8877 63b8 2ebf 89b6
000000a0: 0000 0000 03ce 1037 2930 2db8 4a60 1633
000000b0: 00c8 f636 0b9b 8435 0000 0000 7066 0bb6
000000c0: d2ae 89b7 b6a4 6a32 ad3a 7336 30ea ce34
000000d0: 0000 0000 4a84 59b5 a07f 3f38 0acf 0db3
000000e0: cfc1 b6b7 041a 7ab5 0000 0000 4a75 0336
000000f0: 0faa 9337 813a 27b2 846f 8bb7 9477 93b4
00000100: 0000 0000 d205 1b35 ff58 7339 cec7 35b4
00000110: d3c1 e5b8 834c a0b6 0000 0000 3483 2837
00000120: 3113 9637 d259 6bb2 e046 d8b6 e589 cfb4
00000130: 0000 0000 2b2c 5a35 f8e6 b838 6b34 b2b3
00000140: ae5b 8636 4f25 1db6 0000 0000 9b32 a536
00000150: 8618 85b6 8008 6e31 3a62 1c35 72e7 d133
00000160: 0000 0000 c0a8 5cb4 e1d0 a536 fa8a b1b1
00000170: 4fce ae35 eb8f 1cb4 0000 0000 8495 a434
00000180: c8d2 2cb8 8ffc 0b33 a682 6337 4ee3 7635
00000190: 0000 0000 e0c4 01b6 63b9 1038 b7f9 c6b2
000001a0: 95bb afb7 3676 2fb5 0000 0000 ca73 b835
000001b0: c9c2 b938 a6ee 83b3 a458 4db8 d8ae e8b5
000001c0: 0000 0000 e69a 7436 76a4 d637 d19c 9eb2
000001d0: 85b0 4bb7 64de 0bb5 0000 0000 0e09 9335
000001e0: 3b56 14b8 c70e 0d33 f820 ffb4 dec6 7835
000001f0: 0000 0000 08c3 02b6 46e0 ceb6 749d d531
00000200: ce5b 76b5 135f 3c34 0000 0000 f305 c6b4
00000210: c873 c938 e1c5 91b3 06b1 51b8 e88b 00b6
00000220: 0000 0000 0e22 8736 c826 1b38 025b f6b2
00000230: dfb2 5cb7 2e3e 59b5 0000 0000 c05f e435
00000240: 49ad a237 fce4 a1b2 3fcf 1e36 4ac3 0eb5
00000250: 0000 0000 e613 9635 9677 bab6 c809 7a31
00000260: 6ecc 5f36 847d dc33 0000 0000 92c9 67b4
00000270: 1b55 f737 790c f0b2 c68e 0736 80ae 53b5
00000280: 0000 0000 1587 de35 d684 c438 c0eb 9db3
00000290: c646 04b8 4242 0bb6 0000 0000 ec64 9236
000002a0: 6ad3 43b7 e3d4 1c32 eaad 7c36 5a4c 8a34
000002b0: 0000 0000 6d62 11b5 7cfc bd36 8743 91b1
000002c0: 64db 25b6 f018 00b4 0000 0000 39a9 8634
000002d0: 7fc6 ab38 a809 77b3 2352 38b8 1cd8 d9b5
000002e0: 0000 0000 b001 6536 74d6 5c38 5133 15b3
000002f0: c558 12b8 a091 83b5 0000 0000 6d4f 0a36
00000300: 2639 0838 5431 0cb3 1b2c dd36 4d40 77b5
00000310: 0000 0000 c5f5 0136 a4d5 3cb8 ebfb 3033
00000320: e011 a734 bc11 9c35 0000 0000 ea10 24b6
00000330: 8b36 e3b7 50cf bb32 2eb9 fb36 9c9d 2535
00000340: 0000 0000 021a aeb5 03f5 59b7 2299 4432
00000350: 95e1 a935 935d ad34 0000 0000 943f 36b5
00000360: 2a20 4c38 7c4f 1bb3 b9cd afb7 f7f4 88b5
00000370: 0000 0000 6ff9 0f36 7157 2cb7 f03e d231
00000380: 40bc 0737 9266 3934 0000 0000 60e6 c2b4
00000390: 64d9 1739 6ed1 02b4 70f7 e7b7 c8b7 66b6
000003a0: 0000 0000 148a f236 2182 bc38 4a01 8db3
000003b0: ee2c 32b8 18af f8b5 0000 0000 8ab6 8236
000003c0: 4e72 67b6 6ec4 e030 271c 8336 ee34 4633
000003d0: 0000 0000 a65c d0b3 9f5c ac37 5c69 acb2
000003e0: d45e 2736 8709 18b5 0000 0000 ced3 9f35
000003f0: 1a9a d9b7 4064 d332 2020 08b6 2b69 3a35
-8.42414e-06 6.4240497e-09 3.187166e-06 1.8127693e-07 0.0 -3.8113018e-07 -3.131898e-05 1.3621282e-08
3.705326e-05 3.8436997e-07 0.0 -8.081304e-07 -7.542732e-05 6.8941645e-08 1.2317441e-06 1.9454255e-06
0.0 -4.090216e-06 5.9761505e-06 -7.642557e-09 5.536908e-06 -2.156616e-07 0.0 4.53423e-07
-2.7611593e-05 2.2739979e-08 6.731134e-06 6.4168705e-07 0.0 -1.3491324e-06 -1.8361206e-06 1.2947886e-08
-2.805837e-05 3.6536983e-07 0.0 -7.6817855e-07 0.00018167222 -1.4547841e-07 -5.423234e-05 -4.1051744e-06
0.0 8.631035e-06 -4.1291267e-05 3.501217e-08 7.3546544e-06 9.87989e-07 0.0 -2.077224e-06
-1.641308e-05 1.3658044e-08 3.6243976e-06 3.8540884e-07 0.0 -8.1031305e-07 4.565681e-05 -3.301742e-08
-2.178634e-05 -9.3170115e-07 0.0 1.9588792e-06 1.7602955e-05 -9.733982e-09 -1.662202e-05 -2.7467888e-07
0.0 5.775047e-07 0.0002320744 -1.6929627e-07 -0.000109556735 -4.7772787e-06 0.0 1.0044128e-05
1.789033e-05 -1.3699223e-08 -6.4455526e-06 -3.8657086e-07 0.0 8.12756e-07 8.816825e-05 -8.298306e-08
4.004184e-06 -2.341654e-06 0.0 4.9232744e-06 -3.966564e-06 3.463839e-09 5.8257467e-07 9.7744206e-08
0.0 -2.0550488e-07 4.9417e-06 -5.167178e-09 1.3024054e-06 -1.4580989e-07 0.0 3.0656167e-07
-4.12043e-05 3.259316e-08 1.3560673e-05 9.1972913e-07 0.0 -1.9337094e-06 3.450493e-05 -2.316379e-08
-2.0948975e-05 -6.53646e-07 0.0 1.3742767e-06 8.857769e-05 -6.143573e-08 -4.895836e-05 -1.7336233e-06
0.0 3.6448996e-06 2.5587371e-05 -1.8464933e-08 -1.2140842e-05 -5.2105156e-07 0.0 1.0954989e-06
-3.5366258e-05 3.284256e-08 -4.752144e-07 9.267659e-07 0.0 -1.9485033e-06 -6.1653873e-06 6.2170162e-09
-9.1775735e-07 1.7543452e-07 0.0 -3.6884703e-07 9.605993e-05 -6.7880826e-08 -4.999435e-05 -1.9154922e-06
0.0 4.027278e-06 3.6990998e-05 -2.8679555e-08 -1.31546685e-05 -8.092928e-07 0.0 1.7015191e-06
1.9392597e-05 -1.8846997e-08 2.3664468e-06 -5.3183305e-07 0.0 1.1181662e-06 -5.5571536e-06 3.6385348e-09
3.3348583e-06 1.02673795e-07 0.0 -2.1586882e-07 2.9484325e-05 -2.794535e-08 2.0199673e-06 -7.8857556e-07
0.0 1.6579603e-06 9.370751e-05 -7.353765e-08 -3.1537165e-05 -2.0751181e-06 0.0 4.362888e-06
-1.1672129e-05 9.1288e-09 3.7652158e-06 2.5760056e-07 0.0 -5.415994e-07 5.662032e-06 -4.2277324e-09
-2.4714618e-06 -1.1930001e-07 0.0 2.508257e-07 8.190888e-05 -5.751795e-08 -4.3945514e-05 -1.6230656e-06
0.0 3.4124641e-06 5.2651812e-05 -3.4738438e-08 -3.4891786e-05 -9.802643e-07 0.0 2.0609834e-06
3.247815e-05 -3.2641154e-08 6.591448e-06 -9.210824e-07 0.0 1.9365555e-06 -4.502166e-05 4.120731e-08
3.111918e-07 1.1628067e-06 0.0 -2.444775e-06 -2.7085907e-05 2.186394e-08 7.5019407e-06 6.169664e-07
0.0 -1.297158e-06 -1.2991254e-05 1.144352e-08 1.2657134e-06 3.2291845e-07 0.0 -6.78928e-07
4.8667345e-05 -3.616104e-08 -2.0957423e-05 -1.0204084e-06 0.0 2.145385e-06 -1.0272358e-05 6.1189596e-09
8.090457e-06 1.7266782e-07 0.0 -3.6302936e-07 0.00014481466 -1.2183384e-07 -2.7652568e-05 -3.4379646e-06
0.0 7.2282364e-06 8.988777e-05 -6.5660586e-08 -4.248035e-05 -1.8528399e-06 0.0 3.8955523e-06
-3.4488216e-06 1.6353974e-09 3.9073816e-06 4.6148607e-08 0.0 -9.7026074e-08 2.0547128e-05 -2.0071347e-08
2.4940136e-06 -5.6638277e-07 0.0 1.1908066e-06 -2.5940175e-05 2.4609221e-08 -2.0284278e-06 6.944344e-07

exp_avg_sq f4 [128, 6]
00000000: 0ffc 0234 b32c d929 cd5b 9a33 a754 9b35
00000010: 0000 0000 f8c6 9a35 8fea 0c36 b0cb b12b
00000020: 32a3 fa34 1582 0a37 0000 0000 1d55 0a37
00000030: d599 1235 2b66 d12a f61a c933 022f 1235
00000040: 0000 0000 ba5e e834 bf4a 5933 9a98 3029
00000050: 0263 4832 52c6 7a34 0000 0000 7979 7a34
00000060: 4aaa 0933 1342 d228 8a2a ff31 f09f 4e34
00000070: 0000 0000 cce3 4b34 0728 9735 0354 7e2b
00000080: 8db5 df34 39e5 1f37 0000 0000 18b5 1f37
00000090: a2b3 8a35 5f33 572b bb7e 9534 6cff a936
000000a0: 0000 0000 ebff a936 b26d 1134 6206 c329
000000b0: b32a c332 2a7b 2d34 0000 0000 449b 2933
000000c0: 1c9c 0834 03c0 7e29 017e 9432 57d1 9033
000000d0: 0000 0000 7c6e 2132 8c49 6234 8888 302a
000000e0: 51be 8d33 21fa 8b35 0000 0000 dfc9 8b35
000000f0: 8cee 2534 6034 e929 73a0 0233 fda5 b134
00000100: 0000 0000 5964 b134 1aa1 8036 48bb 3b2c
00000110: d001 4b35 0542 1c37 0000 0000 5132 1c37
00000120: 70d4 f232 1301 1029 25a4 e331 586a 1d34
00000130: 0000 0000 9339 4e32 e1cd 1736 a3a6 d22b
00000140: c545 3735 92ee 6237 0000 0000 bac9 6237
00000150: 2fb5 9734 1035 0c2a 51fe 2333 5b78 e133
00000160: 0000 0000 5a42 c131 b1d2 cf32 2607 9b28
00000170: f743 b531 588f 8a32 0000 0000 98ec c330
00000180: 2105 5533 24df 2629 501d f431 a730 9c33
00000190: 0000 0000 36d4 7c32 bd22 a535 3a17 172b
000001a0: bfcc 2a34 87d3 4a34 0000 0000 d10a 2733
000001b0: 45e8 6435 c5ad 2d2b ca1f 0c34 e802 1835
000001c0: 0000 0000 a6b6 6034 f713 e733 c86b d129
000001d0: 9cc7 4c33 a337 7535 0000 0000 1737 7535
000001e0: 2e67 c434 7ce9 682a 59d6 5c33 060c d234
000001f0: 0000 0000 32e9 6833 4fa5 1d34 7243 8b29
00000200: 15ec a432 0521 2933 0000 0000 4e41 e631
00000210: 38fe 5935 5058 202b f9cb f133 0d73 0834
00000220: 0000 0000 1f6c 5633 1e42 df33 ac7d 7f29
00000230: f037 6a32 a0e9 1733 0000 0000 1784 de31
00000240: 0201 e333 4089 c129 0ca8 a032 fd13 8434
00000250: 0000 0000 3a69 ad32 37bc 1333 8f36 0129
00000260: be0f f831 a2e9 9834 0000 0000 73cf 0a34
00000270: b6c9 c234 1c4f 982a 5ae3 1b34 95fe 6736
00000280: 0000 0000 90d7 6736 dfac 8d34 e53d 462a
00000290: feba 4433 6713 7c34 0000 0000 787e 7b34
000002a0: 660c 3334 0a78 112a 19f1 ac33 9c2e cc35
000002b0: 0000 0000 46f5 cb35 48aa 1d33 6396 d728
000002c0: c030 1332 0959 0933 0000 0000 5494 0533
000002d0: 5a8c 2435 a65e e82a b8d5 a533 d56b 7033
000002e0: 0000 0000 5a2d 2032 cce9 f334 b458 b22a
000002f0: eb84 9733 7e34 0135 0000 0000 cb1f 0135
00000300: 25ec 9435 4132 622b 31af 0135 84a0 4037
00000310: 0000 0000 bc6e 4037 e7ef 1335 2131 f62a
00000320: aa15 6334 b015 8136 0000 0000 d06e 5e36
00000330: 4adf 7a33 f283 6929 671e 0d33 c7c3 7235
00000340: 0000 0000 0589 7235 8d8f 1d34 f3f3 af29
00000350: 0e80 1233 eb89 1f35 0000 0000 59fa 1e35
00000360: b6f9 2b34 e01a 072a bcaf e132 edc1 0e34
00000370: 0000 0000 07c6 2533 77e1 3634 1851 2b2a
00000380: 2677 ff33 3284 2e36 0000 0000 779d 1e36
00000390: 4285 2d35 7d0b 0f2b 7320 4334 0b29 5236
000003a0: 0000 0000 c62b 5236 57c2 1b35 64e6 da2a
000003b0: bfb4 ce33 01ce 6335 0000 0000 0ca2 5135
000003c0: 6ba9 c433 b4db 3b29 e5c8 3332 b5b7 f833
000003d0: 0000 0000 9ab3 1a32 9f6e b734 7ca0 322a
000003e0: ae01 4433 9a3d a733 0000 0000 8f4c a333
000003f0: 6777 0f34 e729 ea29 d610 5d33 a374 2235
1.2198892e-07 9.64449e-14 7.187882e-08 1.1573037e-06 0.0 1.1531802e-06 2.0998157e-06 1.2633141e-12
4.668487e-07 8.255728e-06 0.0 8.245258e-06 5.4613093e-07 3.719675e-13 9.364696e-08 5.4457644e-07
0.0 4.328229e-07 5.059223e-08 3.921221e-14 1.1664044e-08 2.3355213e-07 0.0 2.3327256e-07
3.2052675e-08 2.3343339e-14 7.426313e-09 1.924343e-07 0.0 1.898872e-07 1.1262026e-06 9.0355517e-13
4.1669082e-07 9.530509e-06 0.0 9.519303e-06 1.0334081e-06 7.6454636e-13 2.784562e-07 5.0663275e-06
0.0 5.0663853e-06 1.3544084e-07 8.660847e-14 2.2720405e-08 1.6156687e-07 0.0 3.9489592e-08
1.2722779e-07 5.6565873e-14 1.7286768e-08 6.743601e-08 0.0 9.396555e-09 2.1074646e-07 1.5679309e-13
6.6004425e-08 1.0429104e-06 0.0 1.0415059e-06 1.5453605e-07 1.0356364e-13 3.041391e-08 3.3089592e-07
0.0 3.3041832e-07 3.833452e-06 2.667826e-12 7.562603e-07 9.313696e-06 0.0 9.31004e-06
2.8269113e-08 3.1975355e-14 6.6252306e-09 1.4660452e-07 0.0 1.2003869e-08 2.262059e-06 1.4967648e-12
6.827434e-07 1.3526196e-05 0.0 1.3517618e-05 2.825777e-07 1.2452908e-13 3.8182694e-08 1.04992715e-07
0.0 5.6245826e-09 2.4193783e-08 1.7211557e-14 5.27552e-09 1.61305e-08 0.0 1.4255361e-09
4.9597592e-08 3.7052948e-14 7.104667e-09 7.273166e-08 0.0 1.4716582e-08 1.2303568e-06 5.367821e-13
1.590697e-07 1.8889669e-07 0.0 3.8892555e-08 8.5274615e-07 6.17031e-13 1.3050081e-07 5.662864e-07
0.0 2.0928073e-07 1.0760407e-07 9.3001616e-14 4.7678995e-08 9.1350574e-07 0.0 9.134978e-07
3.6582918e-07 2.0686746e-13 5.141769e-08 3.9124296e-07 0.0 5.42288e-08 1.4681903e-07 6.18454e-14
1.919947e-08 3.937841e-08 0.0 6.7013053e-09 8.1208736e-07 5.6965977e-13 1.12595394e-07 1.2707842e-07
0.0 4.9924093e-08 1.0396273e-07 5.6730377e-14 1.3633311e-08 3.5369908e-08 0.0 6.4760672e-09
1.05706945e-07 8.594731e-14 1.870287e-08 2.460146e-07 0.0 2.0187702e-08 3.4397285e-08 2.8691076e-14
7.2195396e-09 2.8482197e-07 0.0 1.2927721e-07 3.628208e-07 2.7055517e-13 1.451821e-07 3.4569869e-06
0.0 3.4547156e-06 2.6389077e-07 1.7607407e-13 4.5804875e-08 2.3476387e-07 0.0 2.3422206e-07
1.6675185e-07 1.2920234e-13 8.0532295e-08 1.521275e-06 0.0 1.5196063e-06 3.670928e-08 2.3935015e-14
8.567611e-09 3.1978775e-08 0.0 3.110138e-08 6.1299e-07 4.1277154e-13 7.7222865e-08 5.5977427e-08
0.0 9.3235375e-09 4.5432387e-07 3.1680702e-13 7.055663e-08 4.813263e-07 0.0 4.810251e-07
1.1095586e-06 8.036107e-13 4.831118e-07 1.1481465e-05 0.0 1.1469874e-05 5.511087e-07 4.3732468e-13
2.1148904e-07 3.8470243e-06 0.0 3.314508e-06 5.841074e-08 5.1850837e-14 3.285677e-08 9.043692e-07
0.0 9.0351415e-07 1.4673988e-07 7.8138796e-14 3.410974e-08 5.943281e-07 0.0 5.922389e-07
1.601646e-07 1.1999733e-13 2.6273362e-08 1.329533e-07 0.0 3.859716e-08 1.7032094e-07 1.5215986e-13
1.1896036e-07 2.6004968e-06 0.0 2.3635491e-06 6.464144e-07 5.081975e-13 1.8172595e-07 3.1316329e-06
0.0 3.1317918e-06 5.80248e-07 3.8884445e-13 9.6255e-08 8.4863865e-07 0.0 7.8094376e-07
9.157778e-08 4.1712903e-14 1.0464849e-08 1.1581816e-07 0.0 9.0048164e-09 3.4166894e-07 1.5865255e-13
4.5636334e-08 7.787749e-08 0.0 7.604205e-08 1.3361351e-07 1.03989564e-13 5.1470884e-08 6.051943e-07

exp_avg f4 [128]
00000000: 717e d5b6 5c57 62b7 ca32 8fb8 58fd fd36
00000010: b0ee bcb7 ac26 57b7 1616 1739 7d72 11b8
00000020: d3f3 62b7 2829 0938 53bf 2137 88d2 2f39
00000030: 02a3 6337 255d ac38 333b 66b6 40b9 ab36
00000040: f565 07b8 1474 c037 3837 7f38 eb69 9937
00000050: 2c6f 08b8 059d ceb6 bafe 8c38 dc47 ee37
00000060: 8896 9c37 acd7 71b6 3c2e e837 a1be 9838
00000070: edb0 17b7 a080 8c36 c7f0 6e38 664f 1038
00000080: ff98 0738 dc2e 2bb8 6aa7 b5b7 7927 3eb7
00000090: 4338 1638 d05a cbb6 860f fd38 2062 8838
000000a0: b466 d9b5 aec2 a637 7c76 ccb7 acf7 8e37
000000b0: fcc3 ae37 e2a1 1138 7c1e b6b7 ae2a 4037
000000c0: 378f 1039 f04f 4eb7 cc56 24b7 98c0 e138
000000d0: dd85 8738 306f 9736 5027 6f38 1c2d 5b37
000000e0: 5013 4836 a738 6338 74e0 19b5 b554 1ab8
000000f0: 629a b438 eed1 1838 d49e ca37 9c37 2fb8
00000100: 60c6 0839 bff9 0f38 a7cc 0536 aeab a136
00000110: aaf0 e4b6 48af 4f36 dcef 5fb7 60b8 c5b5
00000120: cfbb 2f39 3084 1536 81bb 20b8 68f5 2c38
00000130: 8d3f 64b7 9abe 10b7 387d 2f38 d4ba 12b7
00000140: 81ef ecb7 925c 2238 ad8b a136 4220 4238
00000150: d84e 92b7 4091 e736 c01f 1736 aeef 17b8
00000160: 47ec 9b37 d84d a1b7 e32a 2038 da66 d7b6
00000170: ce2b 5b38 5281 3637 59f1 8537 8f08 3439
00000180: cef0 a938 306c 1038 04fb 6238 3a8a e8b7
00000190: 8015 0db5 00df 4fb6 b6ce 87b8 a8cc 4e38
000001a0: 6ac5 24b7 da8d 3fb8 b18e 6338 922f 2e38
000001b0: ae1d 9eb6 e087 ddb5 1cd8 0538 23dc 3d37
000001c0: f3e0 1938 5914 8938 6c0d 05b8 8476 1138
000001d0: e00b 8eb5 c01d 5ab6 b237 f0b7 20d5 3cb7
000001e0: 6802 abb6 b750 9c38 64d5 f838 6fb4 9637
000001f0: 3431 1838 e412 ed38 6271 c7b7 c0f0 8c36
-6.3626144e-06 -1.349099e-05 -6.8282316e-05 7.5694807e-06 -2.2522494e-05 -1.2824003e-05 0.0001440871 -3.467732e-05
-1.35274195e-05 3.2701675e-05 9.640894e-06 0.0001676773 1.3568208e-05 8.218949e-05 -3.430713e-06 5.117763e-06
-3.2281463e-05 2.2942237e-05 6.0848164e-05 1.8288343e-05 -3.2528464e-05 -6.157558e-06 6.723167e-05 2.8405273e-05
1.8666746e-05 -3.6037336e-06 2.7678085e-05 7.283432e-05 -9.041495e-06 4.187299e-06 5.6967863e-05 3.440622e-05
3.2328997e-05 -4.081322e-05 -2.165484e-05 -1.1334073e-05 3.5815185e-05 -6.0604434e-06 0.000120668716 6.5032626e-05
-1.619765e-06 1.9879397e-05 -2.4373869e-05 1.704305e-05 2.0833679e-05 3.472146e-05 -2.1710286e-05 1.1454029e-05
0.00013786262 -1.2297169e-05 -9.795371e-06 0.000107647094 6.4622356e-05 4.5130946e-06 5.7018653e-05 1.306392e-05
2.9813564e-06 5.417378e-05 -5.7323564e-07 -3.679535e-05 8.611825e-05 3.6435136e-05 2.4154237e-05 -4.177504e-05
0.00013043871 3.432645e-05 1.9937668e-06 4.81816e-06 -6.8229465e-06 3.094743e-06 -1.3347682e-05 -1.4731304e-06
0.00016759265 2.2279673e-06 -3.83216e-05 4.1236548e-05 -1.3604656e-05 -8.627447e-06 4.183987e-05 -8.745777e-06
-2.824492e-05 3.8710023e-05 4.8144343e-06 4.6283247e-05 -1.744127e-05 6.901246e-06 2.2519234e-06 -3.6224425e-05
1.8587465e-05 -1.9228944e-05 3.8186914e-05 -6.419473e-06 5.2254465e-05 1.0878155e-05 1.5967222e-05 0.00017169326
8.103401e-05 3.4433033e-05 5.4116375e-05 -2.7720922e-05 -5.255788e-07 -3.0975207e-06 -6.4758045e-05 4.930483e-05
-9.821126e-06 -4.5670058e-05 5.425391e-05 4.1529136e-05 -4.712222e-06 -1.6505328e-06 3.191094e-05 1.1316532e-05
3.6687543e-05 6.536459e-05 -3.172217e-05 3.468107e-05 -1.058328e-06 -3.2501848e-06 -2.8636165e-05 -1.1255295e-05
-5.0964773e-06 7.453694e-05 0.000118653086 1.7965414e-05 3.6285448e-05 0.00011304559 -2.3775447e-05 4.200352e-06

exp_avg_sq f4 [128]
00000000: 49dd a533 53df 9a35 9d03 b534 d761 1d33
00000010: 56c8 af32 c2cf 6435 c06d 4335 8d0e 9033
00000020: fda2 3633 981d 1c34 94bb d633 f038 2e36
00000030: da6e c632 d93f b635 fcef c033 6d0f 5732
00000040: 863c 0933 1678 e534 9ea9 1b35 1ae9 ad33
00000050: 4452 3034 c726 4c33 10b3 1335 2125 5133
00000060: 9c5a 8f33 4034 b632 0019 8234 7316 3634
00000070: 7ffd db33 b4dd 8d32 8519 db34 7dc6 a434
00000080: 9e96 4135 a022 bd34 85e4 4833 bf78 8733
00000090: caef da33 ed6b 0a34 e474 fe34 2195 ca34
000000a0: f9f2 0633 3228 0c34 6901 bd33 29ac 6a34
000000b0: dd16 0233 79f2 fd33 1662 ab33 69ef c134
000000c0: 0058 0d35 7eaa 0d35 7a7c ae32 ed17 0835
000000d0: 33b1 8634 fb0d 7c33 a707 be33 168e 0b34
000000e0: 88d6 a434 7d17 be33 d453 0132 7376 0934
000000f0: 8840 bb34 222b 8a34 e921 0534 0ea7 ed33
00000100: e8cc 5635 070f 8133 3e3f 3533 48ee 8f32
00000110: 75de 9a33 2de9 4135 3283 a632 c4b6 9332
00000120: 63c1 9335 ec0c ec32 0b52 a633 e9da a334
00000130: 30ac 7233 48b9 1633 fab0 c333 4b92 7332
00000140: 7939 9133 60a2 0334 640b 9a33 a1fc 9033
00000150: 304a 3f32 3d1d 5334 8db8 cf34 ce87 8534
00000160: 73bd a233 4aaf 0c34 ab5e aa33 aaec b632
00000170: 9608 e434 50e6 6d33 e92c 4c34 7b83 d935
00000180: c875 7635 ee09 aa34 5c0b 4334 e809 9633
00000190: c23c cd34 a0cc be33 73d7 7334 63ce 4f34
000001a0: 13d0 cb33 4fc0 cd33 bdc2 6d34 4f60 3f34
000001b0: 6ede 6f32 984d e134 d99d 7735 3e03 4a33
000001c0: d50c 7c34 641c 1034 8c17 e033 e5af 1f34
000001d0: 95a4 bd33 7ceb 3b33 7224 7c33 33ee f032
000001e0: 8bed 2a34 e48a 6734 feb8 9f35 b1af a634
000001f0: 967c 9633 5cae d035 d39d 2133 4035 b633
7.723663e-08 1.153889e-06 3.3716506e-07 3.6643396e-08 2.0463784e-08 8.5238946e-07 7.280287e-07 6.708169e-08
4.2523414e-08 1.4539398e-07 9.999272e-08 2.5961162e-06 2.3100643e-08 1.3578639e-06 8.9843496e-08 1.25181545e-08
3.1952844e-08 4.2741948e-07 5.7988825e-07 8.098341e-08 1.6421205e-07 4.753272e-08 5.502234e-07 4.8695373e-08
6.675438e-08 2.121135e-08 2.4232577e-07 1.6958238e-07 1.0244093e-07 1.651538e-08 4.0810497e-07 3.06918e-07
7.211728e-07 3.5229186e-07 4.6773966e-08 6.308391e-08 1.01950334e-07 1.2891515e-07 4.7396236e-07 3.7733938e-07
3.142029e-08 1.3053139e-07 8.801255e-08 2.185558e-07 3.0288778e-08 1.1825336e-07 7.98065e-08 3.6123245e-07
5.265465e-07 5.277469e-07 2.0312871e-08 5.0698765e-07 2.5088374e-07 5.8686037e-08 8.8489564e-08 1.2997074e-07
3.0703472e-07 8.851837e-08 7.527849e-09 1.2802211e-07 3.4878417e-07 2.5735886e-07 1.2398927e-07 1.10665596e-07
8.001939e-07 6.009764e-08 4.2199865e-08 1.6755749e-08 7.2116485e-08 7.223742e-07 1.9384604e-08 1.7196164e-08
1.1008636e-06 2.7479892e-08 7.744901e-08 3.0520394e-07 5.650162e-08 3.509311e-08 9.112587e-08 1.4177725e-08
6.762543e-08 1.2259397e-07 7.173256e-08 6.7514755e-08 1.11345315e-08 1.9661543e-07 3.8691033e-07 2.487199e-07
7.5781735e-08 1.3102286e-07 7.933462e-08 2.1295211e-08 4.2474556e-07 5.539033e-08 1.9015319e-07 1.6206026e-06
9.1813536e-07 3.1672192e-07 1.8164923e-07 6.986721e-08 3.8228433e-07 8.8847855e-08 2.2709519e-07 1.935346e-07
9.4907726e-08 9.581037e-08 2.214319e-07 1.7823298e-07 1.3962206e-08 4.1965973e-07 9.224437e-07 4.703474e-08
2.3473997e-07 1.3421374e-07 1.0435096e-07 1.4872019e-07 8.8309356e-08 4.3753502e-08 5.870647e-08 2.8047998e-08
1.5918901e-07 2.156408e-07 1.1900263e-06 3.1047742e-07 7.0075814e-08 1.5547953e-06 3.7629274e-08 8.4847215e-08
