Snake3D/Assets/Snake_12/Snake/Snake-101000.pt (torch, 447721 bytes, 41 tensors)

network_body.observation_encoder.processors.0.normalizer.running_mean f4 [6]
0	0x406f4a11	3.7388957
1	0x3effff5a	0.49999505
2	0xbf2de6b4	-0.6793015
3	0x322082d3	9.342972e-09
4	0x00000000	0.0
5	0xaf9ef56a	-2.891441e-10

network_body.observation_encoder.processors.0.normalizer.running_variance f4 [6]
0	0x4c1ce1d0	4.1125696e+07
1	0x3f9fffac	1.24999
2	0x4bf07b36	3.1520364e+07
3	0x3f800000	1.0
4	0x3f800000	1.0
5	0x3f800000	1.0

network_body.processors.0.normalizer.running_mean f4 [6]
0	0x406f4a11	3.7388957
1	0x3effff5a	0.49999505
2	0xbf2de6b4	-0.6793015
3	0x322082d3	9.342972e-09
4	0x00000000	0.0
5	0xaf9ef56a	-2.891441e-10

network_body.processors.0.normalizer.running_variance f4 [6]
0	0x4c1ce1d0	4.1125696e+07
1	0x3f9fffac	1.24999
2	0x4bf07b36	3.1520364e+07
3	0x3f800000	1.0
4	0x3f800000	1.0
5	0x3f800000	1.0

network_body._body_endoder.seq_layers.0.weight f4 [128, 6]
0	0x3df30247	0.11865669
1	0x3f1328ab	0.5748393
2	0xbf90a6f9	-1.1300956
3	0xbe5ca2e7	-0.21546517
4	0x3e959905	0.29218307
5	0x3f263093	0.6491787
6	0x3dd45b53	0.10368981
7	0x3f865da8	1.0497332
8	0x3ef1d7ef	0.47235057
9	0x3e4e12c4	0.20124346
10	0xbe4d3ae3	-0.20041995
11	0xbef8427a	-0.48488218
12	0x3e5d43cc	0.21607894
13	0x3e1bed84	0.15227324
14	0xbe7a98ee	-0.244724
15	0xbe04c29f	-0.12964867
16	0x3e1c77e3	0.15280108
17	0xbd562b34	-0.052287295
18	0xbea97aea	-0.33101588
19	0x3eff56ae	0.4987082
20	0x3e17de22	0.1483083
21	0x3e830dcb	0.2559646
22	0x3d2613f4	0.040546373
23	0x3e882795	0.265927
24	0xbeead726	-0.4586727
25	0x3ed7a681	0.4211922
26	0xbf548ac1	-0.8302422
27	0x3db346b2	0.087537184
28	0x3ef2a477	0.47391102
29	0xbf320112	-0.69532883
30	0xbe94aa99	-0.29036406
31	0xbf2b716e	-0.66969955
32	0x3f18b181	0.5964585
33	0x3dd6d96c	0.10490689
34	0xbf091fc3	-0.5356409
35	0x3e70c860	0.23513937
36	0x3e28fde5	0.16503103
37	0x3ebb80d2	0.3662172
38	0x3fac47d2	1.3459418
39	0x3d7993f8	0.06093213
40	0x3dca0974	0.09865084
41	0xbd887e8c	-0.06664762
42	0x3ef4cc5b	0.4781216
43	0x3f4c6977	0.79848427
44	0xbeb81af0	-0.35958052
45	0xbeb53ef9	-0.35399607
46	0x3e052445	0.13002117
47	0xbe8b3c09	-0.2719424
48	0x3e40658a	0.18788734
49	0xbd754161	-0.059876803
50	0xbf1a2dbb	-0.6022603
51	0x3d833ce9	0.06408102
52	0xbecf9f3b	-0.4055117
53	0x3cd95325	0.026528904
54	0xbf57d901	-0.84315497
55	0xbe9ea991	-0.30988744
56	0xbdea0676	-0.114270136
57	0xbeedaba5	-0.46420017
58	0x3e2d7110	0.16937661
59	0xbe7962c8	-0.24354088
60	0xbf32b7fa	-0.69811976
61	0x3f28c93c	0.6593206
62	0x3ec24dcf	0.37949988
63	0xbe33253c	-0.17494673
64	0x3dee288c	0.116288275
65	0xbc721fe9	-0.014778116
66	0xbeb568b5	-0.35431448
67	0xbd0aa27c	-0.033846363
68	0xbe8ff15b	-0.28113827
69	0x3f28f713	0.66002005
70	0xbddf02e9	-0.10889227
71	0xbce41d08	-0.027845874
72	0x3d4bfda5	0.04980244
73	0x3dd07e01	0.10180283
74	0xbe442822	-0.19155934
75	0x3e7f553a	0.24934855
76	0xbedd9b0c	-0.43282354
77	0xbe9acee4	-0.3023597
78	0xbe06c24d	-0.13160057
79	0xbf25574b	-0.64586323
80	0xbd77b45d	-0.060474742
81	0x3e8d4bab	0.27596793
82	0xbea1813b	-0.31543908
83	0xbd8f705c	-0.07003853
84	0x3ede17a3	0.43377408
85	0xbeffdb7b	-0.49972138
86	0x3bf3f559	0.007445019
87	0x3f650a6f	0.89469045
88	0xbecb0546	-0.3965246
89	0xbe021e37	-0.12706839
90	0x3eb17c61	0.34665206
91	0xbc84c48e	-0.016207006
92	0xbe674e43	-0.22588448
93	0x3ed8cc50	0.42343378
94	0xbc6bdedc	-0.0143963955
95	0x3e9710d1	0.29505017
96	0x3e79c405	0.24391182
97	0xbf0c7b16	-0.54875314
98	0x3e9d81ff	0.30763242
99	0xbdd365e1	-0.10322166
100	0x3de92592	0.11384119
101	0xbf08ef58	-0.5349021
102	0xbdb91c05	-0.090385474
103	0x3f267887	0.6502766
104	0x3e81b37c	0.25332248
105	0xbf2a35da	-0.6648842
106	0x3e5f8af9	0.21830358
107	0x3e244fa8	0.16046011
108	0x3c99cb26	0.018773627
109	0x3f07c7cf	0.5303926
110	0xbf0faba1	-0.5612126
111	0x3ede61af	0.43433902
112	0xbea2e54c	-0.31815565
113	0x3e06404a	0.13110462
114	0x3f3c917b	0.73659486
115	0x3d145ac2	0.036219366
116	0xbeab4653	-0.3345209
117	0x3ee386fd	0.44438925
118	0x3e08d812	0.13363674
119	0x3f12b3b1	0.5730544
120	0x3edba111	0.4289632
121	0x3e28a13a	0.16467753
122	0x3ea40b56	0.320399
123	0x3c80c664	0.0157196
124	0xbeca484f	-0.39508292
125	0xbe45432a	-0.19263902
126	0x3ea333b4	0.31875384
127	0x3f1af585	0.60530883
128	0xbef682a0	-0.48146534
129	0x3de33aae	0.11095177
130	0xbe20a3a6	-0.15687427
131	0xbf2e795a	-0.6815392
132	0xbeda0067	-0.42578432
133	0x3eba5696	0.36394185
134	0xbe776720	-0.24160433
135	0x3e9d6a6e	0.30745262
136	0xbf10f508	-0.5662389
137	0x3e4f4308	0.20240414
138	0xbbd1e907	-0.006405953
139	0xbf89729f	-1.0738105
140	0xbe038c37	-0.12846456
141	0x3e90f748	0.2831366
142	0xbe231f4d	-0.15929909
143	0x3d01c30d	0.031680156
144	0x3ee72179	0.45142725
145	0x3f0f63d2	0.5601169
146	0x3e974716	0.29546422
147	0xbf69b49c	-0.91291213
148	0xbe843363	-0.25820455
149	0x3cce6856	0.025196236
150	0x3e5f7686	0.21822557
151	0xbe9a2aa8	-0.3011067
152	0xbe30a262	-0.17249444
153	0xbe509cd8	-0.20372331
154	0xbea2e9d9	-0.31819037
155	0xbe03e703	-0.12881093
156	0x3ed17721	0.409112
157	0x3f1d47f6	0.6143793
158	0x3e113c26	0.14183101
159	0xbd6cb883	-0.05779315
160	0xbf13fa38	-0.5780368
161	0x3d415c13	0.04720695
162	0xbe819633	-0.25309905
163	0xbd88b5c3	-0.06675293
164	0xbc90a9f2	-0.017659161
165	0x3e28004b	0.16406362
166	0xbf4676e9	-0.7752519
167	0x3f56a86b	0.83850735
168	0xbe4f09b6	-0.20218548
169	0xbecf704d	-0.40515366
170	0xbd7ed5c3	-0.062215578
171	0x3dfd79cc	0.123767465
172	0xbf198dd7	-0.59982055
173	0xbeecd0cd	-0.46253052
174	0x3ee7a488	0.45242715
175	0x3ed2e20e	0.4118809
176	0xbf3e464a	-0.74326
177	0x3e3294a6	0.17439517
178	0xbe6ed940	-0.23325062
179	0x3e18a6f5	0.14907439
180	0x3ed3dcb9	0.41379336
181	0x3f4d5567	0.8020844
182	0xbed17c2e	-0.40915054
183	0xbed03958	-0.4066875
184	0x3e1cdf40	0.15319538
185	0x3e3f5359	0.18684138
186	0x3c62f3a8	0.0138520375
187	0xbdadad72	-0.08480348
188	0x3ef0d6e3	0.47038946
189	0xbf229f41	-0.6352425
190	0xbeefd4a3	-0.46841916
191	0xbe6bfe80	-0.23046303
192	0x3e858956	0.26081342
193	0x3ee8539a	0.45376283
194	0x3e9ff4af	0.31241366
195	0x3eea358f	0.45743987
196	0xbf4b64a0	-0.79450417
197	0x3e560831	0.20901562
198	0x3dbdd931	0.092699416
199	0xbede615f	-0.43433663
200	0x3e1a7df2	0.15087107
201	0x3d734057	0.05938753
202	0x3d5a9775	0.053367097
203	0xbeb45a07	-0.35224935
204	0xbddd35f8	-0.10801309
205	0xbf08a05b	-0.53369683
206	0xbf0a754a	-0.5408522
207	0x3f2db944	0.6786082
208	0xbf69bbec	-0.9130237
209	0x3e54e309	0.20789732
210	0xbeb95c9c	-0.36203468
211	0x3ea48aab	0.32137045
212	0xbf57e60b	-0.8433539
213	0xbf31f2b2	-0.6951095
214	0xbf20430e	-0.6260232
215	0x3b316504	0.0027068267
216	0x3eaf39cc	0.34223783
217	0xbd3933fe	-0.0452156
218	0x3d83ddb7	0.06438773
219	0x3dbe070a	0.09278686
220	0xbc2a7eb3	-0.010406184
221	0xbe2241b5	-0.15845378
222	0xbf8163e3	-1.0108608
223	0x3f40343c	0.75079703
224	0x3e4036be	0.18770882
225	0x3ee93464	0.45547783
226	0xbead7e8b	-0.33885607
227	0xbf07dd61	-0.5307217
228	0x3d343145	0.0439923
229	0xbf515fe8	-0.81786966
230	0xbd81d0d0	-0.06338656
231	0x3eb9daf9	0.36299875
232	0x3e91e7be	0.28497118
233	0x3e46d4ac	0.19417065
234	0xbe3953d3	-0.18098383
235	0x3e4f18f2	0.2022436
236	0x3f19d71a	0.60093844
237	0xbdb21a4a	-0.086964205
238	0x3cdb939a	0.02680378
239	0xbeaf70b3	-0.3426567
240	0xbe487a01	-0.19577791
241	0x3e687001	0.22698976
242	0x3f2ce1bd	0.6753195
243	0x3e3d2015	0.1846927
244	0xbef3afff	-0.47595212
245	0xbe047882	-0.12936595
246	0x3e4de20d	0.20105763
247	0x3f094600	0.53622437
248	0xbe5dd879	-0.21664609
249	0xbe42fd57	-0.19041954
250	0xbf3d6919	-0.7398849
251	0xbd4035f2	-0.046926446
252	0xbec04b5b	-0.37557492
253	0xbf43e138	-0.7651553
254	0xbd9438ce	-0.07237397
255	0xbd6aa6d4	-0.057288006

network_body._body_endoder.seq_layers.0.bias f4 [128]
0	0x3c9e2669	0.019305425
1	0x3d082b77	0.033244576
2	0xbc32e1c6	-0.010918086
3	0xbc8a9bc2	-0.016919974
4	0x3c90d1fb	0.017678251
5	0x3c6d3eb8	0.014480285
6	0x3d8bcb7c	0.06825921
7	0x3d2ffe87	0.042967346
8	0xbcbc3c0a	-0.022977848
9	0xbccc6998	-0.024952695
10	0xbd108209	-0.03528026
11	0xbd015440	-0.031574488
12	0x3c0ecd5a	0.008715952
13	0xbd88948d	-0.06668959
14	0x3dae705c	0.085175246
15	0x3d2521d4	0.040315464
16	0x3cacf86b	0.021114549
17	0xbd78fd54	-0.060788468
18	0x3d19bc60	0.037533164
19	0xbbd7986d	-0.00657945
20	0x3db290b9	0.0871901
21	0x3cc36f22	0.023856703
22	0xbd53c9d5	-0.051706154
23	0xbc454ca4	-0.012042198
24	0x3d8ab954	0.0677363
25	0x3ce716ad	0.028209055
26	0x3ddd79a4	0.10814217
27	0xbd125a23	-0.035730492
28	0xbcd15c49	-0.0255567
29	0x3d261285	0.040545005
30	0x3d87c083	0.066285156
31	0xbc00f9ad	-0.007872027
32	0x3c8db62b	0.017298779
33	0x3d7f874e	0.062384896
34	0xbc37005f	-0.011169522
35	0x3cd27491	0.025690349
36	0x3dcf8ef3	0.10134687
37	0xbc86b0b0	-0.016441673
38	0x3d4905b3	0.0490777
39	0x3cf9ed9f	0.030508814
40	0x3d5677a2	0.052360184
41	0xbc647704	-0.013944391
42	0xbd48b1bc	-0.048997626
43	0xbd8a75f7	-0.06760781
44	0x3da588a8	0.08082706
45	0x3dc585ad	0.09644637
46	0x3d1aa9da	0.03775964
47	0x3de68989	0.112567015
48	0xbd36eee1	-0.044661406
49	0x3d108676	0.035284482
50	0x3db7ff5a	0.08984251
51	0xbbfd1975	-0.007723982
52	0x3de8aad9	0.113607116
53	0xbd19d5b6	-0.037557326
54	0xbc57a27d	-0.013161299
55	0x3d8ecd2b	0.069727264
56	0xbc8b5e8f	-0.017012862
57	0xbd5d5737	-0.054038253
58	0x3cfde379	0.030992256
59	0x3d150b4d	0.03638773
60	0x3cb8cf05	0.022559652
61	0x3dc49e51	0.09600509
62	0xba409fcb	-0.000734803
63	0xbd1fcb5c	-0.039012298
64	0xbd5c4bae	-0.05378311
65	0xbd6666cd	-0.056250382
66	0x3cf6152c	0.030039392
67	0x3c5e3744	0.013562981
68	0xbc00651b	-0.007836605
69	0xbc42bf29	-0.011886396
70	0x3d2c3105	0.042038936
71	0xbc6d9fc6	-0.014503425
72	0xbc2f3749	-0.010694333
73	0xbca577e5	-0.020198772
74	0xbbb48d38	-0.0055099986
75	0xbcef42ac	-0.029206596
76	0xbd1e9fc2	-0.038726576
77	0x3cdc796f	0.026913373
78	0x3d33f80e	0.043937735
79	0x3d4e49f3	0.050363492
80	0xbd28c05a	-0.041199066
81	0x3d5e2c0e	0.054241233
82	0x3da394e7	0.07987385
83	0x3dc36e72	0.0954255
84	0x3d3303f3	0.04370494
85	0x3d60d123	0.05488695
86	0x3cf7bf1f	0.0302425
87	0x3d0883dc	0.033328876
88	0xbcdb5787	-0.026775135
89	0x3c9b6183	0.018967396
90	0x3d5ef98d	0.05443721
91	0xb98e99ed	-0.00027199034
92	0x3dbf1b31	0.09331358
93	0xbd1b9e39	-0.03799269
94	0x3c61c6ec	0.013780337
95	0xbd338f1b	-0.043837648
96	0xbbdee2a4	-0.00680192
97	0x3cf7825f	0.030213533
98	0x3d85610f	0.06512653
99	0x3af12aa5	0.001839955
100	0x3d07274b	0.032996457
101	0xbd9cece0	-0.07662368
102	0xbd285a1c	-0.04110156
103	0x3ced3b1a	0.028958846
104	0x3d0c834c	0.034304902
105	0xbc72aaa2	-0.01481119
106	0xbd11f864	-0.035637274
107	0x3c2f713c	0.0107081495
108	0x3bc32284	0.0059550423
109	0xbd844f43	-0.064604305
110	0xbd9d22f1	-0.0767268
111	0x3b8d5621	0.004313246
112	0x3daaa477	0.083321504
113	0xbbc65193	-0.006052205
114	0xbc583410	-0.013196006
115	0x3d416b3d	0.04722141
116	0x3d78f213	0.060777735
117	0x3b990935	0.004670287
118	0x3dbaa4d4	0.0911347
119	0x3b689acd	0.003549266
120	0x3d34008e	0.04394584
121	0x3ce4e1a7	0.02793963
122	0x3d973843	0.07383778
123	0x3d7438e1	0.059624556
124	0x3db7ca7c	0.08974168
125	0x3c38129a	0.011234904
126	0xbd4a0630	-0.049322307
127	0xbd478ce3	-0.048718344

network_body._body_endoder.seq_layers.2.weight f4 [128, 128]
0	0x3d4f8653	0.05066521
1	0x3d00b665	0.031423945
2	0x3e4962df	0.19666623
3	0xbd74b63f	-0.059744116
4	0x3d69b481	0.057056908
5	0x3c430c7c	0.011904832
6	0x3d40494b	0.046944898
7	0xbd0c09f9	-0.0341892
8	0xbd9683e6	-0.073493764
9	0xbd17debc	-0.03707765
10	0x3e04717e	0.12933919
11	0xbe5863f0	-0.21131873
12	0xbbf9c064	-0.0076218117
13	0xbd8a090e	-0.06740008
14	0xbe7f8971	-0.24954773
15	0xbe4f1a5c	-0.20224899
16	0xbd55f848	-0.052238733
17	0x3d1bc5d1	0.03803045
18	0xbddef090	-0.108857274
19	0xbcdaad42	-0.026693944
20	0xbe837781	-0.25677112
21	0xbb7300c2	-0.003707931
22	0x3e13e67a	0.14443389
23	0x3c27a9a9	0.010233321
24	0xbe841fc8	-0.25805497
25	0xbde3955a	-0.11112471
26	0xbe4672f6	-0.19379792
27	0x3c7de4d3	0.0154964505
28	0x3d8dd2e7	0.06924992
29	0x3c33a40b	0.010964404
30	0xbd011547	-0.031514432
31	0xbe7ee029	-0.24890198
32	0x3dbe28e4	0.09285143
33	0xbe3aa4d2	-0.18226936
34	0x3a81519e	0.0009866243
35	0x3dbc0129	0.09179909
36	0xbde429c1	-0.111407764
37	0x3ba901d6	0.0051576896
38	0xbd23639f	-0.039889928
39	0x3d22d801	0.03975678
40	0xbc8ab615	-0.016932527
41	0x3e136fbe	0.14398095
42	0x3d1e4e43	0.038648855
43	0x3d7c953e	0.061665766
44	0xbcf80c1c	-0.030279212
45	0xbe4184e0	-0.18898344
46	0x3da96fa1	0.08273245
47	0xbe2ea85b	-0.1705641
48	0xbdd51e2d	-0.10406146
49	0xbca479d8	-0.02007763
50	0xbe52e990	-0.2059691
51	0x3d7583d9	0.059940193
52	0xbe3089b7	-0.17240034
53	0x3d650ecc	0.055922315
54	0x3ccd4f70	0.025062293
55	0xbd4ad231	-0.04951686
56	0x3d0c33db	0.03422914
57	0x3e25dd9b	0.16197817
58	0xbc8fbb1b	-0.017545274
59	0x3d2aef08	0.041731864
60	0xbe0a0dda	-0.13481846
61	0xbd7632c9	-0.060107026
62	0xbd6128f2	-0.05497069
63	0x3d5eb3ae	0.054370575
64	0x3b38e4f7	0.0028212646
65	0x3e0ff47f	0.14058112
66	0x3d6556a3	0.055990826
67	0x3e003090	0.12518525
68	0xbd9cf87f	-0.07664584
69	0x3d0bcd20	0.03413117
70	0xbe025ff3	-0.12731914
71	0xbd64cce7	-0.055859473
72	0xbcff6918	-0.031178042
73	0x3d1d5e68	0.03842011
74	0x3e0b423e	0.13599488
75	0x3c9d5859	0.019207167
76	0xbd92badf	-0.07164549
77	0x3d362347	0.044467237
78	0xbd6a3017	-0.05717477
79	0x3d4e6fb2	0.05039949
80	0x3d2b6b05	0.04185011
81	0x3d854c81	0.065087326
82	0xbd52bf58	-0.05145201
83	0xbe3f707a	-0.1869525
84	0xbdd96b5f	-0.106161825
85	0xbae46f89	-0.001742826
86	0xbdfad3b3	-0.1224741
87	0xbe7d683d	-0.24746795
88	0xbc5ecc25	-0.013598477
89	0xbd985397	-0.074378185
90	0xbdb073e2	-0.08615853
91	0xbdc36130	-0.095400214
92	0xbd4902a8	-0.0490748
93	0xbdc34a86	-0.095356986
94	0xbdb73a17	-0.08946627
95	0xbc8bb9c9	-0.017056363
96	0x3cff9677	0.031199677
97	0x3dbc509c	0.091950625
98	0x3d900f89	0.07034213
99	0x3cc91013	0.024543798
100	0x3d00b698	0.031424135
101	0x3e30a850	0.17251706
102	0x3df5df4d	0.12005482
103	0xbc7c747f	-0.015408634
104	0xbdca5da3	-0.09881141
105	0xbdf56728	-0.11982566
106	0x3a1b9647	0.0005935174
107	0x3bf38d40	0.00743261
108	0x3d8284f2	0.063730136
109	0x3e1e6026	0.15466365
110	0x3e1e633f	0.15467547
111	0x3df7a473	0.12091913
112	0xbd4f7f98	-0.050658792
113	0xbcb96468	-0.022630885
114	0xbcb24f19	-0.021766232
115	0xbe6ddb37	-0.23228155
116	0x3d4a9399	0.049457166
117	0xbcbb613c	-0.022873513
118	0xbb7c6f95	-0.0038518657
119	0x3d2500a6	0.04028382
120	0x3df3c22a	0.11902268
121	0x3d608d90	0.054822505
122	0xbe2a8e4a	-0.16655841
123	0xbdbf5eee	-0.09344278
124	0xbdbc5eee	-0.09197794
125	0xbd80f204	-0.06296161
126	0xbda614f7	-0.081094675
127	0x3e027156	0.12738547
128	0xbda7d26d	-0.081944324
129	0xbd2df9bf	-0.042474505
130	0x3e1b875f	0.15188359
131	0x3da5e733	0.081007384
132	0xbd55230c	-0.052035376
133	0x3d100ac9	0.035166536
134	0xbd649d2d	-0.055813957
135	0x3b3d0288	0.002884062
136	0x3c603a66	0.013685798
137	0x3daad3dd	0.08341191
138	0xbdeae831	-0.11470068
139	0xbe02d52c	-0.12776631
140	0x3de6ff74	0.112791926
141	0xbe0868dc	-0.1332125
142	0x3de86782	0.113478675
143	0x3dd0ba3b	0.10191771
144	0x3d94716e	0.072481975
145	0xbe7dccd2	-0.24785164
146	0x3e671e72	0.22570208
147	0xbda92622	-0.082592264
148	0x3c36a15e	0.011146871
149	0x3e127467	0.14302216
150	0x3dc23ccb	0.094842516
151	0x3d445bf0	0.04793924
152	0x3d2a236d	0.04153769
153	0xbe256bc2	-0.16154388
154	0x3daf6b9c	0.08565447
155	0x3d890116	0.0668966
156	0xbdc76ca0	-0.097375154
157	0x3cd70e47	0.026251925
158	0x3e2e1fa6	0.1700426
159	0x3db7e3b9	0.089789815
160	0xbe11bbe2	-0.14231828
161	0x3e040283	0.12891583
162	0x3cf87a78	0.030331835
163	0x3d4b1ff6	0.049591027
164	0x3e0623f8	0.13099658
165	0xbe1eeca4	-0.15519959
166	0x3dca1f34	0.09869233
167	0xbd3f85a5	-0.046758313
168	0xbd72b27e	-0.059252255
169	0xbceef3c1	-0.029168965
170	0xbdc77d61	-0.09740711
171	0x3d97221c	0.07379553
172	0x3e0d2b27	0.13785993
173	0xbda4243f	-0.08014726
174	0x3c9164bd	0.017748231
175	0x3d2c04b7	0.041996684
176	0x3e021996	0.12705073
177	0xba36980d	-0.00069654064
178	0xbd3f6acb	-0.046732705
179	0x3d66f1e1	0.056383017
180	0x3d892056	0.06695621
181	0xb9a53517	-0.00031510807
182	0xbda68121	-0.08130098
183	0x3df3440e	0.11878215
184	0xbcde2ffe	-0.027122494
185	0x3d15b6cb	0.036551278
186	0xbd9ae3af	-0.075629584
187	0x3e0aa4c7	0.1353942
188	0xbde55b3e	-0.11199044
189	0xbe135983	-0.14389615
190	0xbdb1852d	-0.086679794
191	0xbcea718e	-0.0286186
192	0xbdc47ec5	-0.09594492
193	0xbd1c3701	-0.038138393
194	0xbde4540b	-0.111488424
195	0x3d22aeb8	0.039717406
196	0xbd9f22ee	-0.07770334
197	0x3e157597	0.14595638
198	0x3dbe30a5	0.09286622
199	0xbcc5b9e3	-0.02413649
200	0xbb990563	-0.0046698316
201	0xbbe4ff97	-0.0069884765
202	0xbe091553	-0.13387041
203	0xbdf57882	-0.11985876
204	0xbe0a4edb	-0.13506643
205	0x3de9c72f	0.114149444
206	0xbad4503b	-0.0016198227
207	0xbcb14ded	-0.021643603
208	0x3d280d07	0.04102805
209	0xbd094342	-0.033511408
210	0x3dd0a7b3	0.10188236
211	0xbda6d8a7	-0.08146792
212	0x3de397a1	0.11112905
213	0x3d54b4cf	0.051930245
214	0xbca11471	-0.019663068
215	0xbd816437	-0.063179426
216	0x3d8454e3	0.06461503
217	0x3e3171be	0.17328545
218	0xbdab768d	-0.08372221
219	0xbd0aded5	-0.033903915
220	0x3cd2c03c	0.02572643
221	0xbe02e473	-0.12782459
222	0x3d90f6a5	0.07078294
223	0xbe2fe185	-0.17175873
224	0xbd48abc6	-0.04899194
225	0x3e7ec292	0.2487891
226	0xbe0d92f4	-0.1382559
227	0xbd8e82fb	-0.06958576
228	0x3dc07385	0.093970336
229	0x3de04bb1	0.10951937
230	0xbe011f3d	-0.12609573
231	0xbb00e8bc	-0.001966997
232	0x3c868fef	0.016426055
233	0xbdec1689	-0.11527736
234	0xbd326316	-0.043551527
235	0xbd556b9d	-0.05210458
236	0x3d47b3a8	0.048755318
237	0xbe266e0f	-0.16252922
238	0xbc485bbe	-0.012228904
239	0xbe7808f9	-0.24222173
240	0xbda77038	-0.08175701
241	0x3cde65ee	0.027148213
242	0xbdba123a	-0.09085508
243	0x3d1df397	0.038562384
244	0x3e1cf468	0.15327609
245	0xbdb426b5	-0.08796445
246	0x3db8a13c	0.09015128
247	0xbd95bb43	-0.07311108
248	0x3d9cf52d	0.07663951
249	0x3d808abc	0.062764615
250	0x3ce81bfb	0.028333655
251	0xbd3922e7	-0.0451993
252	0x3e48a85e	0.19595477
253	0xbdaa8240	-0.083256245
254	0xbdb27910	-0.08714497
255	0xbceec201	-0.029145243

network_body._body_endoder.seq_layers.2.bias f4 [128]
0	0xbd70e72c	-0.058814213
1	0x3d666cad	0.056255985
2	0x3dae53fe	0.08512114
3	0xbce8a6d6	-0.028399866
4	0xbd2c4334	-0.042056277
5	0x3d896865	0.06709365
6	0x3d8f8819	0.070083804
7	0x3d2f0bb1	0.04273576
8	0x3d290082	0.04126025
9	0x3c5110c6	0.012760347
10	0x3c7a0578	0.015260093
11	0x3d7d7bbb	0.061885577
12	0xbb77ae82	-0.0037793224
13	0xbc850d16	-0.016241591
14	0x3d218905	0.039437313
15	0xbd6ebb5b	-0.058284145
16	0x3cca8124	0.024719782
17	0x3d1a8b5a	0.037730552
18	0x3d187828	0.037223965
19	0x3d815634	0.0631527
20	0xbcdac385	-0.02670456
21	0xbd5fb28b	-0.05461363
22	0x3d37f5d8	0.04491219
23	0x3d5b571e	0.05354988
24	0xbcb842f1	-0.022492858
25	0x3d766905	0.06015875
26	0x3d0b0457	0.033939686
27	0xbcbbe100	-0.022934437
28	0x3c896be6	0.016775083
29	0xbd4fe9ec	-0.050760195
30	0x3d32ab14	0.043620184
31	0x3c7d31d6	0.015453776
32	0x3db8a576	0.09015934
33	0x3cf45269	0.029824452
34	0x3d9e0c86	0.077172324
35	0xba916337	-0.001109219
36	0x3ce34af3	0.0277457
37	0x3da31836	0.07963602
38	0x3d6dd7da	0.05806718
39	0x3cbc8971	0.023014756
40	0xbd109331	-0.035296623
41	0x3cd718fb	0.026257029
42	0xbca95d38	-0.020674333
43	0xbcb91b77	-0.022596104
44	0xbcc92e43	-0.024558192
45	0x3d9901ac	0.07471022
46	0x3b18a4d6	0.002329161
47	0x3d1c4387	0.038150337
48	0xbcc2b036	-0.023765665
49	0xbae0b982	-0.0017145129
50	0x3da0e05f	0.078552954
51	0x3d4c0baf	0.04981583
52	0xbccd62b9	-0.025071489
53	0x3d677f51	0.056517903
54	0x3bcd94d7	0.0062738466
55	0xbcb75c04	-0.022382744
56	0x3d2d7c60	0.04235494
57	0xbb12fe68	-0.002242947
58	0x3b524722	0.0032085855
59	0x3dab155e	0.08353685
60	0x3c49c035	0.012313892
61	0xbbe0efd3	-0.006864527
62	0x3c09ed39	0.008418375
63	0xbba222e2	-0.004948006
64	0x3d6fb325	0.058520455
65	0xbc172d31	-0.009227083
66	0xbc561a9d	-0.013067869
67	0xbcf61fc1	-0.030044438
68	0x3d875f57	0.066099815
69	0x3d2086ce	0.03919106
70	0x3c8c95ea	0.017161328
71	0x3cd0b159	0.025475191
72	0x3c300ac2	0.010744752
73	0xbc535f5a	-0.012901152
74	0xbb72a7ca	-0.003702628
75	0x3d8017cd	0.0625454
76	0x3d90e0e4	0.070741445
77	0xbc975306	-0.018472206
78	0xbc9ecbc0	-0.019384265
79	0xbd09e040	-0.033661127
80	0xbd88fe3b	-0.066891156
81	0xbd20db1f	-0.03927147
82	0x3ce34372	0.027742121
83	0x3cc621f0	0.024186105
84	0x3bc64c40	0.00605157
85	0x3c479ba9	0.012183108
86	0x3d97db25	0.074148454
87	0xbd86b7c1	-0.06578017
88	0x3cac9a6f	0.021069733
89	0x3d5dec5b	0.054180484
90	0xbcb97266	-0.022637557
91	0xbd1ca9d8	-0.038247913
92	0x3d81a51c	0.0633032
93	0xbc9487d3	-0.018131172
94	0x3ce61f81	0.028091194
95	0x3d9d2d42	0.07674648
96	0x3d4a288e	0.049355082
97	0xbb3e7352	-0.0029060435
98	0xbd0154db	-0.031575065
99	0x3d349422	0.044086583
100	0xbc569352	-0.013096647
101	0x3cccdf0d	0.025008703
102	0x3da0f794	0.07859722
103	0xbd3376e9	-0.043814573
104	0xbcb23824	-0.021755286
105	0xbd10e289	-0.03537229
106	0x3d3dfb23	0.04638208
107	0xbcb3729d	-0.021905238
108	0x3dad5936	0.08464281
109	0x3ca6f1e7	0.02037902
110	0x3db8a687	0.090161376
111	0x3be49577	0.0069758254
112	0xbd848d0f	-0.06472217
113	0x3d99dfe7	0.07513409
114	0x3d9f719a	0.0778534
115	0x3d65170b	0.05593018
116	0x3d405ef6	0.04696556
117	0x3d868803	0.06568911
118	0xbd266bce	-0.040630154
119	0x3ce3d01f	0.0278092
120	0x3d98afcc	0.074554056
121	0xbcb4b109	-0.022057073
122	0x3d5f0d14	0.05445583
123	0x3d31d410	0.04341513
124	0xbc1d2b75	-0.0095928805
125	0x3dba6d2f	0.09102856
126	0x3d23e130	0.040009677
127	0x3d4cec0d	0.050029803

action_model._discrete_distribution.branches.0.weight f4 [5, 128]
0	0xbb88d2af	-0.004175506
1	0xbcba8542	-0.02276862
2	0x3cad815b	0.021179846
3	0xbd2e2329	-0.042514
4	0xbd1baec6	-0.038008474
5	0xbcac797a	-0.021054018
6	0xbc15cb16	-0.009142658
7	0xbd2e8b16	-0.04261311
8	0x3d0d7d74	0.03454347
9	0xbd8ec904	-0.069719344
10	0xbd3d80d8	-0.046265453
11	0x3d3060f2	0.043061204
12	0x3cd8f251	0.026482733
13	0xbd140a30	-0.036142528
14	0xbcd89b1e	-0.026441153
15	0x3c83b5e9	0.016077952
16	0xbdaf8a23	-0.08571269
17	0xbce76c8a	-0.028249998
18	0xbd95f73b	-0.07322546
19	0x3d0b2a3b	0.03397582
20	0xbd30096d	-0.04297774
21	0x3d2d4f33	0.04231186
22	0xbd3bfd20	-0.045895696
23	0xbd5e77d2	-0.05431349
24	0xbd40010c	-0.046876
25	0xbd6a4e42	-0.05720354
26	0x3d029aae	0.031885795
27	0x3c4182af	0.011810943
28	0xbd727889	-0.059196983
29	0xbc0556f2	-0.008138405
30	0xbd701ffc	-0.058624253
31	0x3d14bc89	0.036312614
32	0x3ced8569	0.028994279
33	0xbd5512f3	-0.052020025
34	0x3c590796	0.013246438
35	0xbd5eaa16	-0.054361425
36	0xbd4cc9d3	-0.049997162
37	0x3cdc7e46	0.02691568
38	0x3d428baf	0.047496494
39	0xbd9d9b57	-0.07695644
40	0x3d07a918	0.033120245
41	0xbd4042e9	-0.04693881
42	0x3cbdd8a0	0.023174584
43	0xbb95f998	-0.004576873
44	0xbd6b4a84	-0.05744411
45	0x3d2abf35	0.041686255
46	0x3b295fcc	0.0025844453
47	0xbda0af87	-0.07845979
48	0x3c0a0a60	0.008425325
49	0x3d17adaf	0.037030872
50	0xbd068d70	-0.03284973
51	0xbd0b2c45	-0.033977766
52	0x3c224e3d	0.009906349
53	0x3d2eab39	0.04264376
54	0x3d434019	0.04766855
55	0x3c9dfa2e	0.019284334
56	0x3d1c22b6	0.03811904
57	0x3d099ed8	0.03359875
58	0xbd39d5e2	-0.04536999
59	0xbbed0fec	-0.007234564
60	0xbd537c89	-0.051632438
61	0x3cbca281	0.023026707
62	0xbd91da98	-0.071217716
63	0xbd668b97	-0.056285467
64	0xbd2f154c	-0.04274492
65	0xbb21cc5a	-0.0024688453
66	0xbcf4e6bd	-0.02989518
67	0x3d464536	0.04840585
68	0x3d156c43	0.0364802
69	0x3d079e9f	0.033110257
70	0xbc3d783d	-0.011564312
71	0x3d03bd11	0.03216273
72	0x3d053a10	0.032526076
73	0x3a94d7ee	0.0011355856
74	0x3cec7825	0.028865883
75	0xbcd3287e	-0.025776144
76	0xbcb6f09d	-0.02233153
77	0x3ccafa42	0.024777535
78	0xbd8f4714	-0.06995979
79	0x3c962279	0.018326985
80	0x3c561192	0.0130657125
81	0xbd10457b	-0.03522251
82	0xbd81d7ac	-0.06339964
83	0xbd123264	-0.035692587
84	0xbd8d474f	-0.06898367
85	0xbd875063	-0.066071294
86	0x3cb65d07	0.022261156
87	0xbc9e06b1	-0.0192903
88	0x3d0345eb	0.0320491
89	0x3d437bc8	0.04772547
90	0xbc2063d7	-0.009789429
91	0xbd47cfe5	-0.048782248
92	0xbd20ee14	-0.03928955
93	0x3d33ef1d	0.043929208
94	0xbd7ab556	-0.06120809
95	0x3cf175dd	0.029475147
96	0x3d534960	0.051583648
97	0x3d2b1670	0.041769445
98	0x3cb9926d	0.022652829
99	0xbd2f45f2	-0.042791314
100	0x3d181549	0.037129674
101	0xbd61e9c2	-0.05515457
102	0x3c87af08	0.016562954
103	0x3cb787b2	0.022403572
104	0xbd1bfeb9	-0.03808472
105	0x3d1b629e	0.037935846
106	0x3cd4b606	0.025965702
107	0x3cb0e9be	0.021595832
108	0x3ca8d9ac	0.020611607
109	0xbd934663	-0.071911596
110	0x3d2bed73	0.041974496
111	0xbcc9a77d	-0.024615997
112	0xbcdbd0a1	-0.02683288
113	0x3cf0d80e	0.029399898
114	0x3d064eff	0.03279018
115	0x3d572e6c	0.052534506
116	0x3cd4f613	0.025996244
117	0xbd2e6cc9	-0.042584214
118	0xb98e81de	-0.0002718111
119	0xbd99d49f	-0.075112574
120	0x3ca8868f	0.020571975
121	0xbc2ec98a	-0.010668168
122	0x3bd383dc	0.006454928
123	0xbd9ead64	-0.077479154
124	0x3cd48e22	0.02594668
125	0x3d118401	0.03552628
126	0x3d3585df	0.044317123
127	0xbc86f5d3	-0.01647464
128	0x3c1bcdde	0.009509532
129	0x3cd777e3	0.026302284
130	0xbcbf3b21	-0.023343625
131	0x3b249db5	0.0025118415
132	0x3c96e169	0.01841803
133	0xb9d8ba78	-0.0004133766
134	0x3c3010ad	0.010746163
135	0x3c157a74	0.009123433
136	0xbd1e1f63	-0.03860415
137	0x3cb1fd00	0.021727085
138	0x3bfc178e	0.0076932376
139	0xbd2596ae	-0.040426902
140	0xbba43d46	-0.005012187
141	0x3cac2e3c	0.02101814
142	0x3d07de47	0.033170965
143	0x3c3c7812	0.011503236
144	0x3d0797ce	0.033103757
145	0x3c95a523	0.01826722
146	0x3ce35505	0.027750501
147	0xbd4c58ac	-0.04988925
148	0x3ce40d71	0.02783844
149	0xbba61ecf	-0.0050695906
150	0x3c7866c5	0.015161221
151	0x3c559ece	0.01303835
152	0x3d0accde	0.033886783
153	0x3cc58f7b	0.024116268
154	0xbd618cce	-0.055065922
155	0xbd4c44ad	-0.04987018
156	0x3cbd0781	0.023074867
157	0x3ba20868	0.0049448498
158	0x3d057a6c	0.032587454
159	0xbc0cf94b	-0.008604358
160	0xbccf5113	-0.025307214
161	0x3cdcbcce	0.026945498
162	0x3af6b10c	0.0018821075
163	0x3cf05975	0.029339531
164	0x3cafb760	0.021449745
165	0xbb987771	-0.0046529104
166	0xbd0de163	-0.034638774
167	0x3cd8ac7e	0.026449438
168	0xbc78a402	-0.015175821
169	0x3cfa2279	0.030534016
170	0xbc6f278b	-0.01459683
171	0x3bf8cace	0.0075925356
172	0x3cb74d3f	0.022375701
173	0xbd22402f	-0.03961199
174	0x3a7984ff	0.0009518414
175	0x3d0e55ad	0.034749676
176	0x3b4da9a5	0.0031381634
177	0xbd031c06	-0.032009147
178	0x3cc8defa	0.024520386
179	0x3d0a38b0	0.033745468
180	0x3a4d8db6	0.0007841246
181	0xbd4c6b7e	-0.0499072
182	0xbd88e82b	-0.066849075
183	0xbb72c1c5	-0.0037041765
184	0xbd4c65bc	-0.04990171
185	0xbd6a3c9e	-0.057186715
186	0x3ca74f4d	0.020423556
187	0x3bba5f1d	0.005687608
188	0x3cb87a68	0.022519305
189	0xbd0a872b	-0.033820312
190	0x3caefab5	0.02135978
191	0x3cc2abe2	0.0237636
192	0x3d17ebda	0.03709016
193	0xbcb6dd08	-0.022322193
194	0x3b4ee72c	0.0031570895
195	0xbd079db4	-0.03310938
196	0xbca0cdf1	-0.01962945
197	0xbcf51da2	-0.029921357
198	0x3caabd1d	0.02084213
199	0xbd28bc36	-0.041195117
200	0xbcc1f97e	-0.023678537
201	0x3b3fcd6a	0.0029266723
202	0xbc584a15	-0.013201256
203	0x3cb5f27f	0.022210358
204	0x3d019172	0.031632848
205	0xbd136506	-0.035985015
206	0x3c8e4045	0.01736463
207	0xbb20ec64	-0.0024554962
208	0x3bd9a4ac	0.006641945
209	0x3d09eb03	0.03367139
210	0x3c436651	0.01192625
211	0x3c2f0749	0.010682889
212	0x3c20072c	0.009767335
213	0x3caf7d7f	0.021422146
214	0xbc460f22	-0.012088569
215	0x3ccf1cdd	0.025282318
216	0xbd3cbf78	-0.046081036
217	0xbd2160f3	-0.0393991
218	0xb9289005	-0.0001607538
219	0x3c60d857	0.013723454
220	0x3c535375	0.012898316
221	0xbcc21431	-0.023691269
222	0x3c6504d6	0.013978204
223	0xbcfc8aac	-0.030827843
224	0xbd3bf3e3	-0.045886885
225	0xbd283898	-0.041069597
226	0xbca687cd	-0.020328427
227	0x3c55bc66	0.013045406
228	0xbd31b34e	-0.04338389
229	0x3c42dfd7	0.011894188
230	0xbb88d50d	-0.0041757883
231	0x3bf14d8f	0.007363982
232	0x3cc06811	0.023487123
233	0xbd00b990	-0.031426966
234	0xbd25adbc	-0.04044889
235	0xbcaa140c	-0.020761512
236	0xbbe6e6e4	-0.0070465673
237	0x3cfaded5	0.030623833
238	0xbcc3c781	-0.023898842
239	0x3b9cd837	0.004786517
240	0x3c853b3c	0.016263597
241	0xbcb38f8d	-0.021919036
242	0xbd1d0ecd	-0.038344193
243	0xbd4151d8	-0.047197193
244	0x3aad1a3c	0.0013206671
245	0x3c7709f7	0.015078059
246	0x3bd166cd	0.0063904286
247	0x3cf4af21	0.029868664
248	0xbc3aea50	-0.0114084035
249	0x3c2618cd	0.010137749
250	0xba141b19	-0.000564979
251	0x3c6cdb55	0.01445659
252	0xbbc1c6a6	-0.0059135733
253	0xbd21926d	-0.039446283
254	0xbd13b6ae	-0.03606289
255	0x3cd3164a	0.025767464

action_model._discrete_distribution.branches.0.bias f4 [5]
0	0xbb86c54a	-0.004112874
1	0x3ad077be	0.0015904827
2	0xbcfaf312	-0.030633483
3	0x3d77a794	0.06046255
4	0xbcf7e9a1	-0.03026277

exp_avg f4 [128, 6]
0	0x3826152a	3.9597195e-05
1	0xb59bd2ef	-1.160979e-06
2	0x3986d884	0.00025719788
3	0xb3ae82c4	-8.1262925e-08
4	0x00000000	0.0
5	0xae99ba70	-6.9907524e-11
6	0xb912c35e	-0.00013996425
7	0x352b1be1	6.3743033e-07
8	0xb8b44a26	-8.59688e-05
9	0x3357a639	5.0209767e-08
10	0x00000000	0.0
11	0x2e2c95c1	3.924128e-11
12	0xb7830188	-1.561713e-05
13	0xb4e2cbea	-4.2244147e-07
14	0xb89956f3	-7.311804e-05
15	0xb2cfd930	-2.4196737e-08
16	0x00000000	0.0
17	0xadfa8600	-2.8481217e-11
18	0x38a235c8	7.7347795e-05
19	0x353e1334	7.080846e-07
20	0x3981c8bb	0.00024754353
21	0x32d34732	2.4596009e-08
22	0x00000000	0.0
23	0x2e52aec2	4.7903688e-11
24	0x391b9556	0.00014837584
25	0xb598209a	-1.1334371e-06
26	0x38bdfd34	9.059385e-05
27	0xb3b93a6c	-8.625361e-08
28	0x00000000	0.0
29	0xaea0aa7c	-7.306242e-11
30	0x38a5a934	7.89933e-05
31	0x35ade7b4	1.2956939e-06
32	0x39e39189	0.00043405246
33	0x33926cd4	6.8184505e-08
34	0x00000000	0.0
35	0x2ebc260e	8.55601e-11
36	0xb9f29b30	-0.0004627346
37	0x3584dacb	9.898444e-07
38	0x379252a6	1.7443042e-05
39	0x33bf33e2	8.903568e-08
40	0x00000000	0.0
41	0x2e94f7e1	6.774293e-11
42	0x37f069d0	2.8659502e-05
43	0xb5984240	-1.1344164e-06
44	0xb9683828	-0.00022146164
45	0xb347b302	-4.6496105e-08
46	0x00000000	0.0
47	0xaeaf8e47	-7.983352e-11
48	0xb65dabc0	-3.3031538e-06
49	0xb5801644	-9.543223e-07
50	0x3912f87d	0.00014016214
51	0xb395a5fa	-6.968544e-08
52	0x00000000	0.0
53	0xae83268b	-5.964037e-11
54	0x39fd95a6	0.00048367417
55	0xb4673958	-2.1534413e-07
56	0xb9ff3c14	-0.00048682152
57	0xb3716846	-5.620702e-08
58	0x00000000	0.0
59	0xad04db58	-7.552035e-12
60	0x3a19f2b6	0.00058726536
61	0x353a6966	6.9443774e-07
62	0xb91dbc43	-0.0001504282
63	0xb075c840	-8.9415053e-10
64	0x00000000	0.0
65	0x2e4e1174	4.685448e-11
66	0x39768990	0.00023511634
67	0xb5a38ce3	-1.218545e-06
68	0xb933b1c0	-0.00017136987
69	0xb3fc4f24	-1.174906e-07
70	0x00000000	0.0
71	0xae9ce2af	-7.134326e-11
72	0xb787f844	-1.6208862e-05
73	0xb5928577	-1.0916691e-06
74	0x3879edfc	5.9587866e-05
75	0xb382b7c6	-6.087025e-08
76	0x00000000	0.0
77	0xae941d2b	-6.735442e-11
78	0x3995fc71	0.00028607578
79	0xb4cdeaf2	-3.835517e-07
80	0xb956e232	-0.00020492895
81	0xb39b4a6e	-7.2312886e-08
82	0x00000000	0.0
83	0xad9d9f26	-1.791951e-11
84	0xb93e4c3d	-0.00018148213
85	0xb4f1d737	-4.5046338e-07
86	0xb8cc6382	-9.746013e-05
87	0x32ef8662	2.7884372e-08
88	0x00000000	0.0
89	0xae224d46	-3.6903168e-11
90	0xb9015cc3	-0.00012336955
91	0xb593a0e1	-1.0999175e-06
92	0xb840fde7	-4.6012832e-05
93	0xb2fa1a37	-2.9115752e-08
94	0x00000000	0.0
95	0xaea2a0fc	-7.395504e-11
96	0xb978ac1e	-0.00023715242
97	0x355633ac	7.9796405e-07
98	0x39a5bd15	0.0003161213
99	0x3351bb95	4.883221e-08
100	0x00000000	0.0
101	0x2e63ab7f	5.1766143e-11
102	0x39530f25	0.0002012817
103	0x353e18dc	7.081669e-07
104	0xb85ee2c6	-5.3140124e-05
105	0x32291aec	9.843216e-09
106	0x00000000	0.0
107	0x2e51f5eb	4.7739517e-11
108	0x38c471a4	9.3671755e-05
109	0xb5baaf09	-1.3909022e-06
110	0x38cc588a	9.74397e-05
111	0xb3a23941	-7.554127e-08
112	0x00000000	0.0
113	0xaecf937e	-9.43947e-11
114	0xb8e73acc	-0.0001102589
115	0xb5334ef4	-6.679759e-07
116	0x37bf25c8	2.2786568e-05
117	0xb2e7b0f7	-2.6972414e-08
118	0x00000000	0.0
119	0xae307b46	-4.0127256e-11
120	0xb9c04e65	-0.00036679502
121	0x34d153ba	3.8990203e-07
122	0xb953dc85	-0.00020204678
123	0x33b20d7d	8.2912244e-08
124	0x00000000	0.0
125	0x2d83d686	1.4988243e-11
126	0x3638a380	2.7513306e-06
127	0xb5d465ea	-1.5824892e-06
128	0x38809afa	6.132382e-05
129	0xb3a8ee2e	-7.866434e-08
130	0x00000000	0.0
131	0xaeddb5ba	-1.00821976e-10
132	0x399be877	0.00029737104
133	0xb501d0db	-4.836017e-07
134	0xb999cc9d	-0.00029334883
135	0xb3a1e323	-7.538463e-08
136	0x00000000	0.0
137	0xadd28f04	-2.3937748e-11
138	0xb5d60b80	-1.5947589e-06
139	0xb5a72dde	-1.2455819e-06
140	0x37928822	1.7467948e-05
141	0xb39f4c9a	-7.417948e-08
142	0x00000000	0.0
143	0xaea644a1	-7.560997e-11
144	0xb98d2457	-0.0002692069
145	0x33def8e8	1.03829564e-07
146	0xb7d2e093	-2.5138526e-05
147	0x333d4920	4.40715e-08
148	0x00000000	0.0
149	0x2b9d0280	1.1156215e-12
150	0xb88769ec	-6.457031e-05
151	0xb56e8e48	-8.8868956e-07
152	0xb81849eb	-3.6308465e-05
153	0xb31e84b7	-3.6907945e-08
154	0x00000000	0.0
155	0xae7c6c22	-5.7394207e-11
156	0xb8bd3d46	-9.023635e-05
157	0xb43eda3c	-1.7774522e-07
158	0xb91e2974	-0.00015083497
159	0x3352f51e	4.9117368e-08
160	0x00000000	0.0
161	0xada9fc04	-1.9324993e-11
162	0x393a3b3e	0.00017760412
163	0x34afe635	3.2763788e-07
164	0xb7bd3810	-2.2556662e-05
165	0xb25151d2	-1.2184005e-08
166	0x00000000	0.0
167	0x2dea3240	2.6625036e-11
168	0x398ca4fe	0.0002682581
169	0xb4838c85	-2.4502893e-07
170	0xb9a5dc08	-0.00031635188
171	0xb313c869	-3.4408377e-08
172	0x00000000	0.0
173	0xad8a4303	-1.5718543e-11
174	0x38bb11c8	8.920167e-05
175	0xb5bf80d6	-1.4268105e-06
176	0x38cb9dc6	9.709182e-05
177	0xb3ba095c	-8.6630024e-08
178	0x00000000	0.0
179	0xaecab42c	-9.2179014e-11
180	0xb483c500	-2.4543988e-07
181	0xb57186c8	-8.997563e-07
182	0xb7e6cd19	-2.7513643e-05
183	0xb2a246fe	-1.8891566e-08
184	0x00000000	0.0
185	0xae7a06e1	-5.684953e-11
186	0xb87650be	-5.8726167e-05
187	0x35c953d2	1.5000062e-06
188	0x3a0b0fc0	0.0005304776
189	0x339b6f00	7.237941e-08
190	0x00000000	0.0
191	0x2ed7b08c	9.808429e-11
192	0xb9684d11	-0.00022153954
193	0x355f2f94	8.314321e-07
194	0x3937a5e4	0.00017514039
195	0x337adb24	5.8406968e-08
196	0x00000000	0.0
197	0x2e5facb9	5.0857738e-11
198	0xb944152d	-0.00018699905
199	0x35102547	5.3698426e-07
200	0x38e9d76a	0.0001115043
201	0x33992001	7.130439e-08
202	0x00000000	0.0
203	0x2dfda0ac	2.8834123e-11
204	0x381b3b84	3.7010308e-05
205	0xb599ba11	-1.1453541e-06
206	0x38d320e6	0.00010067392
207	0xb3bf8665	-8.918577e-08
208	0x00000000	0.0
209	0xae991c15	-6.962623e-11
210	0x3934474d	0.000171927
211	0xb5e883ce	-1.7323707e-06
212	0x39354c16	0.0001728985
213	0xb4154eb6	-1.3905341e-07
214	0x00000000	0.0
215	0xaeef5c32	-1.0884839e-10
216	0xb935dc52	-0.00017343581
217	0xb4b82bc0	-3.4304503e-07
218	0xb9a13f0d	-0.0003075529
219	0x3364ba35	5.325474e-08
220	0x00000000	0.0
221	0xae0e00ac	-3.228766e-11
222	0x39cc25ee	0.00038938172
223	0x3534f91e	6.741774e-07
224	0xb97e611a	-0.00024259501
225	0xb222c5a0	-9.474576e-09
226	0x00000000	0.0
227	0x2e4fb756	4.7229186e-11
228	0xb958cb02	-0.00020674992
229	0xb5511e00	-7.7902223e-07
230	0xb804d71c	-3.167159e-05
231	0xb1c86d88	-5.8332184e-09
232	0x00000000	0.0
233	0xae78d094	-5.6573926e-11
234	0xb9c5685e	-0.00037652528
235	0x3605d1af	1.9940596e-06
236	0x3a3bdd1e	0.0007166433
237	0x33eee37b	1.1124117e-07
238	0x00000000	0.0
239	0x2f0eb71f	1.2979882e-10
240	0xb817b961	-3.6173853e-05
241	0x35c22d98	1.4467396e-06
242	0x39a4782d	0.00031370056
243	0x33da05d7	1.0152478e-07
244	0x00000000	0.0
245	0x2ed15fb9	9.5212234e-11
246	0xb8517b20	-4.9944152e-05
247	0xb56c4875	-8.802229e-07
248	0xb838cae4	-4.4057975e-05
249	0xb37595cd	-5.717975e-08
250	0x00000000	0.0
251	0xae722e5c	-5.5065605e-11
252	0x397f1eae	0.00024330124
253	0xb47647c4	-2.2936644e-07
254	0xb90ede96	-0.00013625095
255	0xb375cb9f	-5.72287e-08

exp_avg_sq f4 [128, 6]
0	0x363c5111	2.806137e-06
1	0x2de38058	2.5863908e-11
2	0x35b2043f	1.3263269e-06
3	0x29546efc	4.716972e-14
4	0x00000000	0.0
5	0x235ba708	1.1907384e-17
6	0x348e4c29	2.6504975e-07
7	0x2cda56dc	6.205576e-12
8	0x34829c90	2.43283e-07
9	0x286e7dbd	1.3238919e-14
10	0x00000000	0.0
11	0x223a607a	2.5258775e-18
12	0x33e4ba62	1.065098e-07
13	0x2c2a329a	2.4186543e-12
14	0x33bf146e	8.897847e-08
15	0x27b1926f	4.9286132e-15
16	0x00000000	0.0
17	0x219fac18	1.0819812e-18
18	0x34d69e7c	3.997592e-07
19	0x2cec362e	6.7135386e-12
20	0x34eb60a9	4.384249e-07
21	0x28703dba	1.3336061e-14
22	0x00000000	0.0
23	0x22a1f944	4.3903058e-18
24	0x35b16594	1.3217091e-06
25	0x2db6e1d1	2.0791287e-11
26	0x355ed2bf	8.300812e-07
27	0x29374d5d	4.0701265e-14
28	0x00000000	0.0
29	0x23400db8	1.0411246e-17
30	0x35f7cc6c	1.8462429e-06
31	0x2db328df	2.0368094e-11
32	0x36238373	2.4365406e-06
33	0x291ecd18	3.5260938e-14
34	0x00000000	0.0
35	0x23ac3924	1.8672477e-17
36	0x3572270d	9.020885e-07
37	0x2da4484b	1.8676746e-11
38	0x35682585	8.6481333e-07
39	0x29285ae4	3.738233e-14
40	0x00000000	0.0
41	0x23852c42	1.4438633e-17
42	0x352ece28	6.512005e-07
43	0x2d9453f5	1.6862936e-11
44	0x35457c36	7.356897e-07
45	0x290af891	3.0857752e-14
46	0x00000000	0.0
47	0x22a118b1	4.366528e-18
48	0x35320acd	6.6325885e-07
49	0x2d6b890e	1.3388636e-11
50	0x35032ba5	4.8864814e-07
51	0x28e94384	2.5897477e-14
52	0x00000000	0.0
53	0x22b8c273	5.007918e-18
54	0x367b2ec7	3.7429143e-06
55	0x2dd6b628	2.4409877e-11
56	0x36935f2c	4.392021e-06
57	0x295560bd	4.7379408e-14
58	0x00000000	0.0
59	0x23b5ed27	1.9724497e-17
60	0x36740dfd	3.6366976e-06
61	0x2e23dba3	3.7256986e-11
62	0x3680881e	3.8305434e-06
63	0x29a3b34e	7.2697585e-14
64	0x00000000	0.0
65	0x2422c5db	3.529574e-17
66	0x35ef3dab	1.7824835e-06
67	0x2de71cc4	2.6274434e-11
68	0x35e8ee26	1.7354657e-06
69	0x296e8cd1	5.2968755e-14
70	0x00000000	0.0
71	0x23a3892b	1.7730588e-17
72	0x354c06c0	7.6005745e-07
73	0x2d7f53b1	1.4513655e-11
74	0x354fe322	7.744403e-07
75	0x28f53346	2.72227e-14
76	0x00000000	0.0
77	0x22a6b8f2	4.519021e-18
78	0x35db5349	1.6341011e-06
79	0x2daf97f3	1.9962676e-11
80	0x35e801ba	1.728585e-06
81	0x293f90ab	4.2536e-14
82	0x00000000	0.0
83	0x236107ac	1.2198899e-17
84	0x3548654d	7.465322e-07
85	0x2da3597f	1.8570699e-11
86	0x35699f62	8.7031196e-07
87	0x292ff0e3	3.9066742e-14
88	0x00000000	0.0
89	0x231c2e12	8.466533e-18
90	0x3591d7d0	1.0866152e-06
91	0x2dd71bba	2.4454983e-11
92	0x3581de06	9.675866e-07
93	0x295d2dae	4.911148e-14
94	0x00000000	0.0
95	0x23514e00	1.134643e-17
96	0x351eaa85	5.9107725e-07
97	0x2cacf3cc	4.915601e-12
98	0x355973d4	8.100735e-07
99	0x2832f31c	9.933701e-15
100	0x00000000	0.0
101	0x222a767e	2.3102025e-18
102	0x354d3746	7.6448885e-07
103	0x2d602b9e	1.2742611e-11
104	0x354cc78a	7.628629e-07
105	0x28e9b77e	2.5947774e-14
106	0x00000000	0.0
107	0x22d2cdc4	5.7138477e-18
108	0x3616dc23	2.2479878e-06
109	0x2e26e783	3.7949654e-11
110	0x360cb3d7	2.0966306e-06
111	0x299f35b9	7.070338e-14
112	0x00000000	0.0
113	0x238add92	1.5055829e-17
114	0x34972495	2.815256e-07
115	0x2cd9ec40	6.19374e-12
116	0x349754e9	2.8187722e-07
117	0x28538d2c	1.1743465e-14
118	0x00000000	0.0
119	0x2223fe0e	2.2225115e-18
120	0x3607f00b	2.025629e-06
121	0x2e08bf37	3.1092653e-11
122	0x362a13b6	2.5343447e-06
123	0x298b796d	6.193904e-14
124	0x00000000	0.0
125	0x23a0f91a	1.7452733e-17
126	0x36013dad	1.9258398e-06
127	0x2e26c0de	3.791533e-11
128	0x361694c2	2.243833e-06
129	0x299855e3	6.765055e-14
130	0x00000000	0.0
131	0x236e86ad	1.29305246e-17
132	0x35e5e9a5	1.7129829e-06
133	0x2d8d4cee	1.6064008e-11
134	0x35f489b7	1.8219497e-06
135	0x2916381d	3.335536e-14
136	0x00000000	0.0
137	0x2359531c	1.1781193e-17
138	0x3591af2c	1.0854324e-06
139	0x2da7335a	1.9008507e-11
140	0x3569a5cf	8.704055e-07
141	0x291fed31	3.5510823e-14
142	0x00000000	0.0
143	0x235ce810	1.1975365e-17
144	0x35253bb4	6.155417e-07
145	0x2d48f4a4	1.1423005e-11
146	0x353d4608	7.0509896e-07
147	0x28e5a7dd	2.5496906e-14
148	0x00000000	0.0
149	0x230b7bd6	7.561428e-18
150	0x35172531	5.6306004e-07
151	0x2d655ee7	1.30382155e-11
152	0x34eb4c78	4.38278e-07
153	0x28efad53	2.6609498e-14
154	0x00000000	0.0
155	0x22c6b873	5.38633e-18
156	0x3549c678	7.5167145e-07
157	0x2d8b0f4a	1.580926e-11
158	0x3563a4f0	8.4804105e-07
159	0x290ac354	3.0811576e-14
160	0x00000000	0.0
161	0x22dd99d9	6.0065063e-18
162	0x355be043	8.19102e-07
163	0x2d2c8a06	9.807715e-12
164	0x35563a70	7.980625e-07
165	0x28b78e9e	2.0378932e-14
166	0x00000000	0.0
167	0x2304586d	7.174459e-18
168	0x35893bd6	1.022471e-06
169	0x2cb1821f	5.045089e-12
170	0x35977936	1.1285654e-06
171	0x2837c2e1	1.0200798e-14
172	0x00000000	0.0
173	0x22752bb9	3.3226838e-18
174	0x35c11c9d	1.4387948e-06
175	0x2e0c96ed	3.1966364e-11
176	0x35f66017	1.8356394e-06
177	0x297f1341	5.6638074e-14
178	0x00000000	0.0
179	0x23011583	6.997659e-18
180	0x350a87e6	5.1606764e-07
181	0x2d568451	1.2193872e-11
182	0x351ab044	5.762597e-07
183	0x28d35d7c	2.3466248e-14
184	0x00000000	0.0
185	0x22817e37	3.5099155e-18
186	0x35889bee	1.0178171e-06
187	0x2da1d716	1.8399098e-11
188	0x35972c02	1.1263185e-06
189	0x2918545b	3.3823947e-14
190	0x00000000	0.0
191	0x232af42c	9.267424e-18
192	0x3512a510	5.4629436e-07
193	0x2cf3be49	6.9276013e-12
194	0x3519d818	5.73114e-07
195	0x2883c06b	1.462737e-14
196	0x00000000	0.0
197	0x22970847	4.0937396e-18
198	0x3559e9e0	8.117913e-07
199	0x2d34db42	1.02805e-11
200	0x356e869a	8.885778e-07
201	0x28ba8654	2.0708404e-14
202	0x00000000	0.0
203	0x22e5329e	6.2124167e-18
204	0x358eed8a	1.0648957e-06
205	0x2da6e371	1.897302e-11
206	0x351c44f6	5.821488e-07
207	0x2926ff64	3.708092e-14
208	0x00000000	0.0
209	0x23416b53	1.0485278e-17
210	0x365d95d2	3.3018773e-06
211	0x2e68689e	5.284361e-11
212	0x36190329	2.2800616e-06
213	0x29df9b35	9.9301135e-14
214	0x00000000	0.0
215	0x24037b21	2.851039e-17
216	0x35a105ea	1.1997156e-06
217	0x2de5a8dd	2.6109276e-11
218	0x35b4f693	1.3482808e-06
219	0x296b75b7	5.2282584e-14
220	0x00000000	0.0
221	0x2344bee1	1.06656015e-17
222	0x366786e2	3.4500194e-06
223	0x2e2f77d7	3.9896832e-11
224	0x364d3bbb	3.0582148e-06
225	0x29b68b3a	8.1065756e-14
226	0x00000000	0.0
227	0x2416eff3	3.272931e-17
228	0x35a6a384	1.2415553e-06
229	0x2dc167c0	2.1987634e-11
230	0x35969bf5	1.122126e-06
231	0x295c0e43	4.8862183e-14
232	0x00000000	0.0
233	0x23100fc5	7.809595e-18
234	0x36601a7f	3.3394024e-06
235	0x2e2112ab	3.6623742e-11
236	0x36897650	4.0966916e-06
237	0x2993c5dd	6.562435e-14
238	0x00000000	0.0
239	0x240366e1	2.849324e-17
240	0x35e49d1e	1.7033051e-06
241	0x2e03e4f9	2.998932e-11
242	0x35f07dc9	1.7918002e-06
243	0x2979b15f	5.544295e-14
244	0x00000000	0.0
245	0x23ed51ed	2.5730288e-17
246	0x34f13d07	4.493415e-07
247	0x2d446e34	1.116578e-11
248	0x34aaefd6	3.183947e-07
249	0x28c20fbe	2.1545154e-14
250	0x00000000	0.0
251	0x22d37caa	5.7323658e-18
252	0x35a22574	1.2080841e-06
253	0x2d8a6956	1.5735562e-11
254	0x35a15746	1.2020835e-06
255	0x291ba0e1	3.4556454e-14

exp_avg f4 [128]
0	0xba4b7c0c	-0.000776232
1	0x39df71cc	0.0004261866
2	0xb994151d	-0.0002824449
3	0x39f83634	0.0004734263
4	0xba46a842	-0.0007578173
5	0x3a631894	0.0008663025
6	0x3a2d7d5f	0.0006618108
7	0xba46d436	-0.00075847225
8	0xba274390	-0.0006380612
9	0xb916f926	-0.0001439793
10	0x39f36d7f	0.00046430153
11	0xba5592f5	-0.00081472035
12	0xba3f562b	-0.0007298912
13	0xb9867335	-0.00025644308
14	0xb99de7c0	-0.0003011804
15	0xba40c848	-0.0007354063
16	0x3a0bdbe8	0.0005335198
17	0x39f83d90	0.00047348114
18	0xba73c87a	-0.00092995877
19	0xb9ea26e9	-0.00044660948
20	0x3988ad18	0.00026068906
21	0xba8aae66	-0.0010580539
22	0xb9a98580	-0.00032333657
23	0xba5a5015	-0.0008327973
24	0x389195ec	6.942064e-05
25	0xba1bc2aa	-0.0005941788
26	0xb8f93a1c	-0.00011884069
27	0x3965b334	0.000219059
28	0xb92bc8e1	-0.00016382664
29	0xba7a13a4	-0.000953967
30	0xba1db338	-0.00060157804
31	0x3a8373ef	0.0010029058
32	0x3a11b997	0.0005558966
33	0x39bc3bf4	0.00035902823
34	0xba48bef7	-0.00076578505
35	0xba97d0ed	-0.001158265
36	0xb9708094	-0.00022936083
37	0x39ec536b	0.0004507558
38	0xba0889fd	-0.000520855
39	0x3aaebfca	0.0013332304
40	0x3a7d91da	0.00096729177
41	0xba1a46c7	-0.00058851804
42	0xb920cdba	-0.00015335428
43	0xba1b544e	-0.0005925343
44	0xb9d1e6f4	-0.0004003566
45	0x374d4de0	1.2237084e-05
46	0xba90ef78	-0.0011057695
47	0xb98363a6	-0.0002506051
48	0xb9e3d5a8	-0.00043456
49	0xb9c1f630	-0.00036995253
50	0xba17ee00	-0.00057956576
51	0xba39723a	-0.0007074211
52	0x3833e890	4.2893516e-05
53	0xba38f289	-0.00070551835
54	0xba6b076d	-0.0008965645
55	0x3a4aca44	0.00077358284
56	0x39548b48	0.00020269782
57	0x3a1a25c0	0.0005880259
58	0xba0c51e7	-0.00053527806
59	0xba3178fc	-0.0006770042
60	0xba3af506	-0.0007131848
61	0x38a702c0	7.963693e-05
62	0xba318604	-0.0006771984
63	0xba485656	-0.00076422596
64	0x395532f8	0.0002033225
65	0x398c2585	0.00026730835
66	0x3a8ecc22	0.0010894577
67	0xb976d824	-0.00023540907
68	0xb9631954	-0.00021657842
69	0x398d49e4	0.00026948669
70	0xba44b289	-0.00075034105
71	0x39e05bb4	0.00042792934
72	0x3a76979a	0.00094067457
73	0x3a4c001f	0.00077820005
74	0xba32977e	-0.0006812735
75	0x39975f4f	0.00028871975
76	0x393c3b30	0.00017951126
77	0x3a874573	0.001032038
78	0xba5f93da	-0.00085288065
79	0xba6794de	-0.00088341336
80	0xba1bfcf5	-0.00059504743
81	0xba3cc278	-0.0007200609
82	0xb6b5f740	-5.423004e-06
83	0x394b99c6	0.00019416874
84	0xba73c812	-0.0009299527
85	0x3a269d20	0.0006355811
86	0x38d8425e	0.000103120445
87	0xba226f96	-0.0006196437
88	0x3a58e7a2	0.0008274262
89	0xba610aa2	-0.0008584653
90	0x3a12eda3	0.00056048686
91	0xba482edf	-0.0007636379
92	0x38c0c654	9.192215e-05
93	0x3a36ba4e	0.00069705106
94	0xba584d02	-0.0008251221
95	0x397e9ea4	0.00024282426
96	0xba20c37a	-0.0006132644
97	0xba95b89c	-0.0011422816
98	0x3a0f1489	0.0005458077
99	0x3a4b06b0	0.0007744832
100	0x3a935eab	0.0011243423
101	0xba0405ef	-0.00050362846
102	0xb8a2f7c0	-7.770909e-05
103	0xba83cb05	-0.0010055011
104	0xba4e42a5	-0.0007868207
105	0x391b439e	0.00014807141
106	0x3a1edfe6	0.0006060585
107	0x39f8234a	0.00047328538
108	0x39e4a7b2	0.00043612492
109	0x3a24bb78	0.00062840385
110	0xb9a3aa0c	-0.00031216478
111	0xba36ccde	-0.00069732766
112	0x397a34b4	0.00023861491
113	0x39826ebc	0.00024878036
114	0x3a0a789b	0.0005282254
115	0xba0a7fbe	-0.00052833173
116	0xba5dc65a	-0.00084600376
117	0xba6cb646	-0.00090298464
118	0x39ad06f6	0.00033002318
119	0x3a5ca0d6	0.00084163004
120	0x3a7778a7	0.0009440281
121	0x3a734b7c	0.00092809624
122	0x3a1d5742	0.0006002077
123	0xba634cb5	-0.0008670793
124	0x39a59c2f	0.00031587618
125	0x3a4cb01a	0.00078082236
126	0x3a036d58	0.0005013547
127	0xba12e8c3	-0.0005604142

exp_avg_sq f4 [128]
0	0x37289d9a	1.0050275e-05
1	0x362915c5	2.5195634e-06
2	0x3583befa	9.815842e-07
3	0x36359091	2.705525e-06
4	0x370a177a	8.230907e-06
5	0x370760f3	8.0692e-06
6	0x36f8cb97	7.414677e-06
7	0x36df7ae5	6.6602247e-06
8	0x36b4629d	5.375898e-06
9	0x371c90aa	9.332007e-06
10	0x3776872b	1.4694214e-05
11	0x3731131e	1.0554473e-05
12	0x36c0c688	5.745158e-06
13	0x3707007e	8.046742e-06
14	0x36f82d50	7.396251e-06
15	0x372302fc	9.716252e-06
16	0x360652d3	2.0015766e-06
17	0x36ac8d6e	5.142464e-06
18	0x377892fc	1.4816174e-05
19	0x362448ac	2.4480205e-06
20	0x374ffa69	1.2396465e-05
21	0x377730b8	1.47336905e-05
22	0x36d56260	6.359347e-06
23	0x36fc2931	7.5149806e-06
24	0x369ab2dd	4.61038e-06
25	0x36afec0b	5.2428854e-06
26	0x36d76c25	6.420089e-06
27	0x3682427b	3.8820413e-06
28	0x36053ae7	1.985283e-06
29	0x37506c70	1.2423014e-05
30	0x36a31ee1	4.8613733e-06
31	0x36f87052	7.4040518e-06
32	0x363b91ef	2.7950116e-06
33	0x368c25cb	4.176725e-06
34	0x36fe96cd	7.5873454e-06
35	0x37ae2840	2.076116e-05
36	0x37308d9a	1.0523387e-05
37	0x37822efb	1.5519085e-05
38	0x3715ac8a	8.921264e-06
39	0x3775108e	1.4606992e-05
40	0x37499c01	1.2016856e-05
41	0x3696e1b9	4.496626e-06
42	0x36d1594b	6.2390804e-06
43	0x36faf176	7.4786903e-06
44	0x36500cbd	3.100183e-06
45	0x36a62895	4.95191e-06
46	0x379ea335	1.8911067e-05
47	0x36f4aa7b	7.291613e-06
48	0x367c21cb	3.7570596e-06
49	0x35d1bc50	1.562652e-06
50	0x36abac73	5.116273e-06
51	0x36c1488d	5.7602942e-06
52	0x375fc7f4	1.3338391e-05
53	0x3717f75b	9.057893e-06
54	0x373688de	1.0879912e-05
55	0x370e0dc4	8.467065e-06
56	0x3772d9e0	1.4475052e-05
57	0x36bb9bb5	5.591161e-06
58	0x36d14cf0	6.237642e-06
59	0x36d04366	6.2067293e-06
60	0x36d2bd4d	6.280525e-06
61	0x36d89a99	6.455299e-06
62	0x36d978b6	6.4811566e-06
63	0x37330ccf	1.0672214e-05
64	0x36874956	4.031851e-06
65	0x36c36762	5.823488e-06
66	0x3751d56f	1.2507065e-05
67	0x35a13589	1.2011016e-06
68	0x377684de	1.4693678e-05
69	0x36859f29	3.9822376e-06
70	0x3728f79f	1.0071234e-05
71	0x36e6b7e8	6.8759437e-06
72	0x373b7e69	1.1175501e-05
73	0x3795a472	1.783876e-05
74	0x370ccb76	8.392022e-06
75	0x364fa936	3.0943897e-06
76	0x367e96a2	3.793663e-06
77	0x373bcf37	1.11943145e-05
78	0x37297ebb	1.0102692e-05
79	0x374b42e2	1.2115315e-05
80	0x36d14303	6.2364866e-06
81	0x370064b3	7.65284e-06
82	0x36c08f45	5.7387247e-06
83	0x368dc2c6	4.224802e-06
84	0x3708faf7	8.164664e-06
85	0x36edbc9a	7.0851065e-06
86	0x359dc8aa	1.1755812e-06
87	0x36a6c115	4.969663e-06
88	0x36af14f5	5.217846e-06
89	0x373b9c12	1.11824065e-05
90	0x369fd05d	4.762826e-06
91	0x36e4ab83	6.814896e-06
92	0x370349cc	7.825391e-06
93	0x37289853	1.0049046e-05
94	0x36de5e57	6.627098e-06
95	0x367a6d2f	3.7316456e-06
96	0x36ee1819	7.095758e-06
97	0x379865c2	1.8167197e-05
98	0x36d28e79	6.2750737e-06
99	0x36a3bebe	4.879984e-06
100	0x373ebc36	1.1368704e-05
101	0x36e51e57	6.828264e-06
102	0x36f98bb5	7.4370423e-06
103	0x374d8dd6	1.2251976e-05
104	0x3725cf49	9.883029e-06
105	0x3767fa4c	1.382695e-05
106	0x36357476	2.703889e-06
107	0x36960e07	4.4719814e-06
108	0x3666ddd6	3.4401796e-06
109	0x36ccef06	6.1074998e-06
110	0x368263b6	3.88591e-06
111	0x36ad851e	5.1712987e-06
112	0x36fb21bd	7.4843106e-06
113	0x35e9cfab	1.7420292e-06
114	0x36b927c9	5.5180612e-06
115	0x36cb2ba1	6.0549505e-06
116	0x37384240	1.098268e-05
117	0x3727a3c4	9.992105e-06
118	0x37282da8	1.00242105e-05
119	0x37364a19	1.0865298e-05
120	0x371f97fb	9.512524e-06
121	0x3742e863	1.1617408e-05
122	0x36c58022	5.885974e-06
123	0x377ddbf2	1.5131185e-05
124	0x37362578	1.0856769e-05
125	0x371033f7	8.595168e-06
126	0x3713aa37	8.801514e-06
127	0x370523d4	7.93576e-06
