Snake3D/Assets/Snake_9/Snake.onnx (onnx, 75976 bytes, 9 tensors)

network_body.observation_encoder.processors.0.normalizer.running_mean f4 [6]
000000 a0 99 a5 c0 a9 ff ff 3e cb 8e 95 bf 40 8a c9 3c
       -5.175003 0.4999974 -1.1684202 0.024602056
000010 00 00 00 00 47 85 0a bd
       0.0 -0.03381851

network_body._body_endoder.seq_layers.0.weight f4 [128, 6]
000000 2c 28 f8 3d a7 ab 24 be 0d cd 2a bf 83 e0 23 bd
       0.12117037 -0.16081105 -0.6671913 -0.040009033
000010 10 3a cd 3c 16 30 78 3f b9 d8 28 3f 3f 82 82 3f
       0.0250521 0.96948373 0.6595569 1.0195998
000020 8a c2 19 bf 41 46 17 3e ee 55 3f bf 1f e9 0d 3f
       -0.6006247 0.14772893 -0.74740493 0.5543384
000030 18 36 0c 3e a2 dc 8e be 89 c5 c4 3e 45 43 97 3c
       0.1369251 -0.27902704 0.38431957 0.018464694
000040 2a 85 0e 3f 8c d3 1f be 4b db 1a 3e d8 54 26 be
       0.5567194 -0.15608042 0.15122716 -0.16243303
000050 f8 46 8c be 04 65 7e bf b3 2e 9d be 0d 80 28 bf
       -0.27397895 -0.9937289 -0.3069969 -0.6582039
000060 b3 51 80 3d 78 ed 12 3f 60 38 ad 3e 34 44 0d 3c
       0.06265583 0.573936 0.33832073 0.008622218
000070 49 30 f5 3d 04 03 6f bd a7 f5 8c 3e 39 f1 cf 3e
       0.119721 -0.058352485 0.27531168 0.40613726
000080 7c 37 30 3e ac dd 83 3e 31 89 a2 3d 85 18 ae 3e
       0.17208666 0.2575506 0.079363234 0.34003082
000090 38 ac 03 3f cf a0 41 bc d1 49 89 bc 9c 7b 27 bf
       0.5143466 -0.011818125 -0.016758831 -0.6542299
0000a0 da 7f 4c 3d f9 17 45 3e 42 f3 ed be e9 ce 3e 3e
       0.049926616 0.19247426 -0.46474653 0.18633617
0000b0 0c 31 56 3f 5e 1e db be 82 2a c6 3e 8c 0d a0 3e
       0.8366859 -0.42796606 0.38704306 0.31260335
0000c0 5f e0 9a 3c f3 ec 0c bf bf fb 09 bd f1 5f de 3e
       0.018905817 -0.55049056 -0.03368735 0.43432572
0000d0 56 80 01 3f 98 6b e9 bd 3d 98 0a bf af 36 f4 3e
       0.5058645 -0.11397475 -0.5413855 0.4769797
0000e0 95 42 a5 3d 7a a2 38 3d 3b 3a 1c 3f 7e 85 78 3e
       0.0806934 0.045076825 0.6102635 0.24269673
0000f0 71 bd c2 be 0e 95 62 3d 74 f9 a0 be ea 9a f0 3e
       -0.38035157 0.05531793 -0.31440318 0.4699319
000100 c4 51 a2 be c1 21 ee be 8d c0 a7 3e 2b f7 8c be
       -0.31703007 -0.46510127 0.32764092 -0.27532324
000110 fa 57 34 bf 02 1b 25 3e f2 f7 e0 be 14 1b 5d 3f
       -0.7044674 0.16123584 -0.43939167 0.8636944
000120 aa cd 9d bd 31 e5 ef bd 1e e1 db 3e 45 cc c3 be
       -0.07705243 -0.11713637 0.42945188 -0.38241783
000130 15 81 4c 3f 6a 64 35 be 5b ab 0c 3f e1 47 de be
       0.79884464 -0.17714086 0.5494897 -0.43414214
000140 67 f9 9f be f8 b0 2c be 60 25 62 3e 49 38 67 3e
       -0.31244966 -0.16864383 0.2208457 0.22580065
000150 1f f0 32 be 2d cd 29 be 88 a6 96 bd 7d d1 08 be
       -0.17474411 -0.16582175 -0.07355982 -0.13361163
000160 e4 5f ea 3d 09 4a 08 bf 8a d9 57 3e 8f d9 8e bd
       0.11444071 -0.5323797 0.21079078 -0.0697509
000170 c3 90 93 3c 3a cb 06 3e 2b aa bc bd 46 8f 81 bf
       0.018013364 0.13163462 -0.092121445 -1.0121849
000180 8e 95 8a bf 0f 10 17 3e da 6c b5 3e 0d a1 df 3e
       -1.082689 0.1475222 0.3543461 0.4367756
000190 13 df 53 3e 1b 06 37 3e 25 2b 85 bf 19 28 7d be
       0.20690565 0.17873423 -1.0403792 -0.24722327
0001a0 22 78 31 3f d4 f8 a2 be 74 fe 05 3e 2b 2c f8 be
       0.69323933 -0.31830466 0.13085347 -0.48471197
0001b0 2f 6c 28 3e 94 c8 3a 3f f1 04 7a 3e 24 60 87 3e
       0.16447519 0.7296231 0.24415947 0.26440537
0001c0 31 36 ab 3c 99 ff 68 be 11 9a a4 3d 86 7a 9d 3e
       0.020899864 -0.22753753 0.08037198 0.3075754
0001d0 13 a9 58 3f 4f a0 5f bd 80 ad ef be 46 d5 da 3e
       0.84632987 -0.05459624 -0.46812057 0.4274084
0001e0 ed 43 05 3e 1a 33 63 bf a9 5d 04 3e 9a f8 2e 3e
       0.13014193 -0.8874985 0.12926354 0.17087021
0001f0 41 15 d9 3d 1e 06 ea bd 33 42 1c bf 4e 59 df be
       0.10599757 -0.11426948 -0.6103851 -0.43622822
000200 eb 12 e2 bd 24 03 d0 3d bd 6a b3 be 22 c5 11 3f
       -0.110387646 0.10156849 -0.35042372 0.56941426
000210 4a 5e 94 3e 51 58 b1 3e 5c fa 13 bd d9 27 64 bd
       0.28978187 0.34637693 -0.036127433 -0.055702064
000220 74 b3 96 3e d1 33 bb 3d 68 c7 8b 3d 70 07 c7 be
       0.29433787 0.091407426 0.06825143 -0.38872862
000230 45 7a 4d be 27 ab 21 3f c2 d2 16 3f a8 87 44 bf
       -0.20066173 0.6315178 0.5891534 -0.76769495
000240 78 07 f3 bd d9 19 1d be aa fd 1b bf 57 3c 83 3f
       -0.11866659 -0.15341891 -0.60933936 1.0252789
000250 39 f1 9b 3e a7 02 83 bf eb df 94 3e 8e dd e3 3c
       0.30457476 -1.0235184 0.29077086 0.027815606
000260 d6 a3 89 be 56 58 97 3e e0 0b 02 3e f4 65 21 be
       -0.2688281 0.29559582 0.12699842 -0.15761548
000270 a9 2b 25 bf 35 ed 98 3e f8 ba db 3e 64 68 8a be
       -0.64519745 0.29868475 0.42916083 -0.2703277
000280 71 b5 79 3e 0c 8a 59 3f 67 3e 99 be cc da ab be
       0.2438562 0.8497627 -0.29930422 -0.33565366
000290 73 e7 48 3f 0c 93 d2 3e 56 72 41 be af 34 d3 3d
       0.78478163 0.41127813 -0.18891272 0.10312783
0002a0 77 96 76 be 93 f9 8a 3e 8d a6 37 3d 28 00 ef bd
       -0.24080835 0.27143535 0.04483657 -0.11669952
0002b0 75 22 33 3e 80 67 5c bf 38 31 8c 3e 21 ae 33 3e
       0.17493613 -0.8609543 0.273813 0.17546894
0002c0 19 43 30 be 34 04 07 be 52 93 ed bc 76 44 f3 bc
       -0.17213096 -0.13185197 -0.029000912 -0.02969573
0002d0 d3 81 16 3e 78 7f 26 be cc ac eb 3e a5 56 c8 be
       0.14697962 -0.16259563 0.4603027 -0.39128605
0002e0 bb 1d 16 be 16 31 80 bd a5 ca 5b bf 6d ec 50 3e
       -0.14659779 -0.062593624 -0.85856086 0.2040269
0002f0 2c 9c 8a 3e 5e 60 44 be 2e 36 b9 be 7d 50 1b be
       0.27072275 -0.19177386 -0.36174148 -0.15167423
000300 8a 1f 17 3e 98 61 99 bd 4d c1 86 be c3 fe 30 3d
       0.14758125 -0.07489318 -0.26319352 0.04321171
000310 36 25 fe 3d d4 dd c4 bd 10 0b ce be db 04 9c 3d
       0.12409441 -0.09612623 -0.40242815 0.076181136
000320 8f 30 62 3d 46 73 02 3e ef 17 49 3e 5f f0 96 3e
       0.05522209 0.12739286 0.19638036 0.29480264
000330 40 5d 58 bd 8a 18 12 3f cc 6a f3 be af 41 b7 3d
       -0.052823305 0.57068694 -0.47542417 0.08948075
000340 5d 83 32 be 77 f4 1a be c0 d1 b1 be 2f b4 48 3d
       -0.17432924 -0.15132318 -0.3473034 0.04899996
000350 32 7a c9 be 81 df f8 be 60 94 7f be f9 51 5e bd
       -0.3935104 -0.4860802 -0.24958944 -0.054277394
000360 c7 3a 65 3d 62 c8 df be 71 10 76 3e 90 41 f8 be
       0.055964258 -0.43707567 0.2402971 -0.4848752
000370 b2 c8 04 3e 8f a2 3f bf 22 bc 2b 3e 11 9b 80 bf
       0.12967184 -0.7485742 0.16770986 -1.0047323
000380 3e 1f ec bd 5d 86 9a 3e 0a ce 3d 3d 6e 1a ea be
       -0.115293965 0.30180636 0.046339072 -0.4572329
000390 13 c7 60 be 7d e7 37 3e b9 60 82 be 76 b2 0b bf
       -0.21950941 0.179594 -0.2546442 -0.54569185
0003a0 7b 53 b5 be 5b 9b 56 bf da 0a af be b9 fb f1 3b
       -0.35415253 -0.83830804 -0.34187967 0.007384744
0003b0 f9 cb 7f 3e a8 c5 39 3e 11 fb d8 be d5 99 f4 be
       0.24980153 0.18141806 -0.42379048 -0.47773615
0003c0 52 e2 7e bf cd f6 83 3e ff a9 c0 3c ac de 2f 3e
       -0.9956409 0.25774232 0.02351856 0.17174786
0003d0 e0 29 90 3e 9b fc 5c 3f db 24 be 3e 76 87 fc 3e
       0.28156948 0.86322945 0.37137493 0.49322098
0003e0 92 c4 81 be ba 8a 82 be d5 01 71 bf 2b 85 a0 3d
       -0.25345284 -0.25496465 -0.9414342 0.078379
0003f0 7b 78 fb bd 24 2c 61 bd d5 e6 8a 3e 09 76 c3 3e
       -0.12278839 -0.054973736 0.27129236 0.3817599

network_body._body_endoder.seq_layers.0.bias f4 [128]
000000 f5 d9 9e 3c 6c 3d 9d 3c 5f 0f 57 bd 76 92 71 bc
       0.01939104 0.019194327 -0.052504893 -0.014744392
000010 b8 73 9c 3c d8 9e 0b bd ae 73 8b bc d6 32 86 3c
       0.019098148 -0.034087032 -0.017022934 0.016381662
000020 1f 75 0b bd cc d9 89 3b 40 ea 12 bd 87 a3 00 3d
       -0.034047242 0.0042068716 -0.03586793 0.03140595
000030 8a 71 15 3b 71 4b db 3a d7 ee 10 bd 1a 29 46 37
       0.002280327 0.0016730857 -0.035384025 1.1811289e-05
000040 53 a1 a6 bc 1c 3a 37 bc 99 1e 76 bc 03 ef 61 bb
       -0.020340597 -0.011183288 -0.0150219435 -0.0034474737
000050 33 52 69 bc 8f a7 05 3d 69 44 23 3d 82 10 10 bc
       -0.014240789 0.0326305 0.039860163 -0.008792998
000060 f2 f8 d8 bc de 44 c9 3b 76 6a fc 3a e2 22 65 bd
       -0.026485894 0.006142243 0.0019257802 -0.05594147
000070 9d 3f a0 bc 2f 3e 06 3d e2 ad 5e bd 90 30 91 3c
       -0.019561583 0.032774147 -0.054365046 0.017723352
000080 80 d4 c0 3a 9e a3 b2 3c f5 64 7a 3c 53 fd 87 3c
       0.0014711767 0.021806534 0.015282859 0.016600287
000090 2a 4d e6 3a ac 0c 3d bb ae 63 ef bc ce 9b 02 bd
       0.0017570604 -0.0028846664 -0.029222336 -0.03188687
0000a0 95 5d c6 3c 6d d0 36 bc 16 b9 52 bd d3 e2 d3 3c
       0.024214545 -0.011158091 -0.051446043 0.025864994
0000b0 a4 5a e4 bb 86 04 78 3c 61 9f 23 3d 2b 46 9e bc
       -0.006968813 0.015137797 0.039946917 -0.019320568
0000c0 d7 91 0b 3a 68 5b 5e 3c c5 f6 c0 3b f6 3b 7f bd
       0.0005324161 0.013571598 0.005888792 -0.062313043
0000d0 a2 f4 b4 3c 28 61 09 bd a1 84 b0 3c bc be 96 3c
       0.022089306 -0.03353992 0.021547617 0.018401496
0000e0 ab 75 2e bb 7f fc 06 bc 6a e2 ad bc fd 7e 06 bd
       -0.0026620429 -0.008238911 -0.021226127 -0.03283595
0000f0 71 45 75 bc 3c 17 17 3b 48 b1 26 3c b2 76 08 bb
       -0.014970169 0.002305462 0.010174103 -0.00208227
000100 f5 15 41 bd db df 1e bc d0 23 2e bd 77 01 a8 3b
       -0.04714008 -0.009696926 -0.042514622 0.0051271277
000110 5a a1 98 3c ed 3c cb 3b 52 ac 5d 3c 17 65 b2 3c
       0.018631626 0.0062023313 0.013529854 0.021776719
000120 e4 68 7c bc cf 4e 0a 3d 7d 26 97 3c 86 81 c2 bc
       -0.015405867 0.033766564 0.01845097 -0.023743402
000130 fd f9 01 bd 5d 7a 07 3c 91 f9 af bc 0e b6 c2 3c
       -0.031732548 0.00826892 -0.021481307 0.023768451
000140 57 cf f5 3c 2b 31 0e 3b 9d a1 dc bb 66 4e 3f bc
       0.030006094 0.0021696787 -0.006733133 -0.0116764065
000150 5b 5b 96 bc 6d 50 af 3c 94 5b 40 3b 9e 01 6c 3c
       -0.018354109 0.021400655 0.002935146 0.014404682
000160 61 ad 32 3c 25 53 d0 3c 29 47 b0 ba 6e 29 a4 bc
       0.010905595 0.025430271 -0.0013448942 -0.020039286
000170 1b 3d 65 3c 02 ca 84 3b d2 50 ed 3c 40 9f 33 bc
       0.013991619 0.0040524015 0.028969202 -0.010963261
000180 a8 eb 8d 3b 81 ab 80 3c 21 10 d6 3b 33 06 74 3c
       0.004331071 0.01570678 0.0065326844 0.014894056
000190 ca 22 d1 3a b7 36 5e bc 8e 70 87 3c 6c 8f 6c 3c
       0.0015955803 -0.01356285 0.016533162 0.014438491
0001a0 03 2e 10 3d 27 dd 45 3d d6 b8 aa bc 96 f0 b0 bd
       0.03520013 0.04830661 -0.02084009 -0.08639638
0001b0 9b bb 05 3d 0e 7c cc 3c e5 b3 34 3c 4b b0 08 3c
       0.032649618 0.024961498 0.011029218 0.008342813
0001c0 de 33 a4 bc 1d a2 91 bb a7 92 f8 3c d7 c2 85 bc
       -0.020044263 -0.0044443742 0.030343367 -0.016328258
0001d0 3a 5b b4 3c 87 b3 eb bb 8b 6f 81 3c 81 64 2c bd
       0.022016156 -0.007193032 0.015800258 -0.042088035
0001e0 c8 b4 c3 3c b8 35 e2 bc 02 c6 29 bb 85 56 c5 bc
       0.023889914 -0.027613506 -0.0025905375 -0.024089107
0001f0 61 e8 41 3b c0 a0 8e 3c 9b 05 b3 bc 8f dc a2 3b
       0.0029587972 0.017410636 -0.021853259 0.0049701403

network_body._body_endoder.seq_layers.2.weight f4 [128, 128]
000000 fd b5 1e 3e 58 f4 2a bd f1 97 e1 bd 27 0c b8 bd
       0.1549911 -0.04173693 -0.11015309 -0.08986693
000010 86 35 c7 bd 08 a7 81 bd 9b 5c 9a bc 9b 6f 70 bd
       -0.09727006 -0.06330687 -0.018842986 -0.058700185
000020 43 d5 eb 3d 37 24 90 3d 74 9c b3 bc c5 e7 82 3d
       0.11515286 0.070381574 -0.021925189 0.06391863
000030 59 ae 9a bd 03 29 be 3d c5 32 92 bd 1e 06 71 3d
       -0.075527854 0.09285166 -0.0713859 0.058843724
000040 c4 29 06 be b2 13 0b 3e d6 4b 57 bc 27 09 2f be
       -0.1310187 0.13581732 -0.013140639 -0.17093335
000050 56 1d a2 3b a2 66 6c 3c 88 da 97 3c da 97 af bc
       0.004947345 0.014428766 0.018536821 -0.021434713
000060 5e 71 44 3e 41 09 a1 3c 52 86 c0 bd 5c 2c 8e bd
       0.19183871 0.019657733 -0.094006196 -0.06942055
000070 2b df ab 3d ee 31 91 bc 1f c5 2b be d4 b9 ca 3d
       0.08392175 -0.017724004 -0.16774414 0.09898725
000080 28 14 bd 3d 0f 45 d2 bc e3 65 ad bc 9c 9e b7 bc
       0.0923236 -0.025667695 -0.021166747 -0.022414498
000090 b5 96 6f bd e2 74 2b 3d 18 ae 86 bd 81 34 e2 bd
       -0.058493335 0.041859515 -0.065761745 -0.110451706
0000a0 a9 b1 84 3e 98 db 17 3e 57 1e 41 be 9b f0 0b be
       0.25916794 0.14829862 -0.1885923 -0.13666002
0000b0 7d b8 71 3c c1 96 0e 3e c4 95 92 3d 68 33 44 bd
       0.014753458 0.13924696 0.07157472 -0.047900587
0000c0 b2 66 12 be 9f ad 92 3c 36 df dd 3d a9 e0 f2 3d
       -0.14296988 0.017905055 0.1083359 0.11859257
0000d0 7a dd 36 3e 0a 51 4a bc f3 9b ae 3d 97 02 cf bd
       0.17857924 -0.012348423 0.08525839 -0.10107916
0000e0 4e 1f 4a 3e d7 44 97 bc 53 59 f4 bc ae ca a7 3d
       0.19738504 -0.018465443 -0.02982775 0.08192955
0000f0 a3 e8 23 bc ea e5 b8 bd 5d 6e 05 3e 31 0e 18 bd
       -0.010004195 -0.090282276 0.13030382 -0.03712291
000100 ac 25 79 3e 4f 46 04 bd 45 99 40 bd d4 d1 1a 3d
       0.24330777 -0.032293614 -0.04702117 0.037797764
000110 29 2a a3 3d 8b 61 df 3c 43 1b 27 be 92 91 2b be
       0.07967026 0.027268192 -0.16318993 -0.1675475
000120 59 a0 6b bc f4 c3 68 bd a3 95 f3 bc f7 7f 84 bd
       -0.014381492 -0.0568275 -0.029734438 -0.0646972
000130 99 bb 5e bd 11 46 1c 3e 8f aa 80 3d 0d 00 f1 3d
       -0.054378126 0.15261103 0.062825315 0.11767588
000140 35 33 a7 3c 0c 7c 22 be cc 74 af bd 97 1c 72 bd
       0.02041016 -0.15867633 -0.08567199 -0.059109297
000150 13 2d aa bc d4 8c c6 3d 6d a1 87 3d 1f 4d 98 3c
       -0.020773446 0.096948296 0.066225864 0.018591462
000160 29 45 1e bd 11 20 45 bc a5 ff 0f be 19 0e 6f bd
       -0.038640175 -0.012031571 -0.14062364 -0.058363054
000170 e1 66 51 3e 50 ca 99 bc 99 c5 0e 3e 96 e1 86 bd
       0.20449401 -0.018773228 0.13942565 -0.06585996
000180 5c 4c b4 bc 26 29 e3 bb 30 4c 5b bd 9f 5e dc 3d
       -0.022009067 -0.0069323955 -0.053539455 0.10760235
000190 fc da 29 bd e1 5a 1a be b5 f5 85 bd c1 2e c0 3d
       -0.041468605 -0.1507373 -0.065410055 0.093839176
0001a0 33 80 86 3d 17 dd 33 bc 44 25 03 be 57 ec 5b bc
       0.06567421 -0.010978005 -0.12807184 -0.013423047
0001b0 f7 9c b3 3d 67 a7 a3 3d ae c1 05 bd 76 c4 16 3d
       0.08770173 0.07990914 -0.03265541 0.036808454
0001c0 d6 91 b9 bc cf d2 61 bd 09 0a 08 be 66 8e 5d bc
       -0.022652548 -0.055132683 -0.13285078 -0.01352272
0001d0 27 64 39 be db 4a 31 be 9b 41 b9 bd 04 bc 68 bd
       -0.18104611 -0.17313711 -0.090457164 -0.05681993
0001e0 5b 56 e9 3d 5d 7f 9f bc 2f b0 df 3d 45 17 07 be
       0.11393424 -0.019469911 0.10922276 -0.1319247
0001f0 d6 de 04 3d 7d bb 8c bd c7 2d fc 3d 0d e4 a2 bd
       0.032439075 -0.06871698 0.12313419 -0.079536535
000200 ee 87 11 3e e9 56 23 be 01 9c 36 bc 6f 13 10 be
       0.1421201 -0.15951122 -0.011145593 -0.14069913
000210 d4 68 a0 bd 0c 17 7b 3c a9 46 b6 3d 4d 58 d1 bd
       -0.078324944 0.015325319 0.08900196 -0.1022192
000220 0c e6 0e bc 67 00 72 3a 99 27 ef bc 70 81 e2 bd
       -0.00872184 0.00092316273 -0.029193686 -0.110598445
000230 03 24 ad 3d 03 57 b1 3d b5 69 be 3d fc dc 94 3a
       0.08454134 0.08659174 0.09297506 0.0011357362
000240 f2 f7 85 bd bc 26 9b 3d ce dc e0 bd a6 37 e0 bd
       -0.065414324 0.07575747 -0.10979615 -0.10948114
000250 68 e2 e1 3d 25 48 dd 3b 1c 68 df bd f2 f3 09 bd
       0.11029512 0.006752985 -0.10908529 -0.03367991
000260 3f 85 a9 bd 7f 6d 10 3d 11 4e 00 3c 6d 6d 7a 3c
       -0.08277368 0.035260674 0.0078311125 0.015284878
000270 1b 8e 13 3e af ff 02 3e 39 64 9d 3d 72 4c ea bd
       0.14409678 0.12792848 0.076851316 -0.11440362
000280 ad 60 e5 3d 4e b0 fc 3c 29 42 e8 3c da 8e c7 bd
       0.1120008 0.030845787 0.02835186 -0.09744044
000290 a2 24 27 be d3 7e 21 3d d6 5f 84 3d 40 0e 00 3d
       -0.16322568 0.03942759 0.06463592 0.03126359
0002a0 39 3e 68 3d 9d 58 fd 3d 30 54 0e 3d a3 0e b4 bd
       0.056699965 0.12370417 0.034748256 -0.08791854
0002b0 9d 13 0b be ab 2f 17 be be a8 23 3d 18 cd 9c 3b
       -0.135817 -0.14764278 0.039955847 0.0047851913
0002c0 a5 0f 0d 3e 2c 5c e0 bc 54 d3 a8 bc 22 60 0e bc
       0.13775499 -0.027387701 -0.020608582 -0.008689912
0002d0 00 f7 4b bc a8 9c 8e bd 29 12 38 bd 7e e9 4e bd
       -0.012449026 -0.069634736 -0.044939194 -0.050515644
0002e0 60 84 39 3e d2 ee 1f 3d 84 3f 40 bd e0 07 a2 3c
       0.18116903 0.039046116 -0.046935573 0.019779146
0002f0 f5 cb 26 be 4d da 36 3e 6f 8a bd 3d 4c 1d 14 be
       -0.16288741 0.17856713 0.0925492 -0.14464301
000300 cc 27 48 bc e3 36 fa 3d 9a da ab bd f3 b8 fc bc
       -0.01221652 0.122175 -0.08391304 -0.03084991
000310 ef b1 49 3d 81 8a 56 bd f4 ab 0c be fa 5e f1 bd
       0.049241956 -0.05237818 -0.1373747 -0.117856935
000320 1e 5b e7 bd cf 2b 1f bd 36 0b 3e bc cf fd 9b 3e
       -0.11296676 -0.03886014 -0.011599353 0.30467078
000330 64 4d a7 3d 1c 66 bc 3d b4 31 e3 bc 35 f9 8e bd
       0.08169058 0.09199163 -0.027733661 -0.06981126
000340 b9 bc 23 3e e8 0d ee bc 09 98 dd 3d c2 59 08 3e
       0.1598996 -0.029059365 0.10820014 0.1331549
000350 f8 35 1f bd 45 59 16 bc a8 5b bf 3c 04 17 7d 3d
       -0.038869828 -0.009176557 0.023359135 0.061789528
000360 a6 27 f9 3c fb c9 2a 3c 69 01 9e 3c 27 26 e6 3c
       0.030414414 0.010424132 0.019287782 0.028094364
000370 81 ae 16 3d 21 73 0c be 1f 89 60 bd 5f dd 78 bc
       0.036787514 -0.13715793 -0.05481827 -0.015189498
000380 8a 4c 70 3b a7 9f 73 3c 86 5b 55 3e cf 90 01 3d
       0.0036666715 0.014869607 0.20835695 0.03163224
000390 42 d9 a8 3c c5 89 12 3d 9f 81 f0 3d 94 fe 5f 3b
       0.02061141 0.03577592 0.11743473 0.003417884
0003a0 99 2a c0 3c df 91 c8 bd 7f d3 1c 3d df 7a 78 3d
       0.023457812 -0.09793448 0.038287636 0.060664054
0003b0 5b ec 29 be 8a b3 5c 3d d0 0d e0 3c 4b 2f b7 3d
       -0.16594069 0.05388216 0.027350336 0.08944567
0003c0 82 88 1d be 8d b9 a0 3d 87 aa 27 3e e7 14 2d be
       -0.15384105 0.07847891 0.16373645 -0.16902505
0003d0 39 0e 90 bd b5 92 c6 3c 60 91 22 3d ac 15 d5 3d
       -0.07033963 0.024239877 0.03968942 0.10404524
0003e0 fa 43 43 bd a0 90 41 be cd f5 30 3d 6a 3a 28 bc
       -0.04767225 -0.18902826 0.043203164 -0.010267833
0003f0 d5 de ea 3d bd 6f cc 3d de 75 98 bd eb 0d 4e bb
       0.11468283 0.0998225 -0.074443564 -0.0031441401

network_body._body_endoder.seq_layers.2.bias f4 [128]
000000 96 87 0b 3d d0 b3 37 bd 57 66 8d bb 4c 15 9b bb
       0.03406485 -0.044849217 -0.0043151784 -0.0047327634
000010 36 83 64 bb 72 97 0e bd ec d2 5a 3b 89 65 a1 3b
       -0.0034868247 -0.0348124 0.003338988 0.004925434
000020 92 0c 87 bd 59 a7 21 3b 22 2e 7b 3c 17 a7 68 3c
       -0.065941945 0.0024666397 0.015330823 0.014199994
000030 bb 6c 13 3c 4f 63 55 3d e8 07 79 3c 39 8f 8a 3c
       0.008998091 0.05209666 0.015199639 0.016913997
000040 82 ec 3c bc 5a e8 ae 3c e7 b6 c9 bb 98 09 40 bb
       -0.011530997 0.021351028 -0.006155837 -0.0029302593
000050 38 f6 7d bb f9 c3 71 3b 66 ab 51 bc 5f b1 4d bc
       -0.0038751494 0.003689049 -0.012797212 -0.012554496
000060 04 f2 8e bb 93 f5 50 3c 97 42 8c 3a 77 6e 1e bd
       -0.0043623466 0.012753862 0.0010700998 -0.038679566
000070 39 72 c6 bc ed b9 44 3a cf 6e 55 3c 6e 59 0d 3a
       -0.024224387 0.0007504512 0.013026907 0.0005392049
000080 41 8d bf 3b 00 25 77 bc 2c de b5 bb 61 20 4a 3c
       0.005845696 -0.015084505 -0.0055501666 0.012336821
000090 cb 8e 13 3d 5f 1f 5f bb 0f c7 e1 bb 09 e5 fe 3c
       0.03602485 -0.0034045798 -0.0068901847 0.031115072
0000a0 9b cc 70 3c 97 07 df 3b 4e f5 36 3c 2a 3e 16 bc
       0.014697219 0.0068063247 0.011166884 -0.0091700945
0000b0 d4 9f 54 3c 6d 79 07 bc 38 82 38 3c dc 3b aa bb
       0.012977559 -0.008268696 0.011261515 -0.005195124
0000c0 08 7f 1b bc 5c 11 d2 3c b5 8d 05 3c 85 84 80 bc
       -0.009490736 0.025643043 0.008151461 -0.01568819
0000d0 19 5f 5e bc aa 67 27 bd ab 59 0e bd 3c b3 c9 ba
       -0.013572478 -0.040870346 -0.034753483 -0.0015388499
0000e0 27 ac c6 3c 0d 76 60 bd 10 91 10 3c a1 20 47 3c
       0.02425201 -0.054800082 0.008823648 0.012153775
0000f0 57 76 14 3c 2b 4f 97 bc 54 f9 7a bc 40 ce df bc
       0.009061418 -0.018470367 -0.0153182335 -0.027320027
000100 31 ff fc 3b fb c4 03 3d 11 f9 e6 bc 04 df 61 bd
       0.007720851 0.032170277 -0.028194936 -0.055144325
000110 e8 e8 36 bc 33 da e6 bb 68 70 a7 bc 44 53 4e 3c
       -0.011163928 -0.0070450543 -0.020439342 0.012593094
000120 fc 9d 15 3c e6 f8 d2 3a 8a 64 49 3d 05 53 90 bb
       0.009131905 0.0016095906 0.049168147 -0.004404428
000130 5c b4 ce 3c ba 9d 80 bb 70 92 f8 3b aa 6e 09 3c
       0.025232486 -0.0039250525 0.007585816 0.008388201
000140 13 81 53 bd a0 ae 5a 3c 55 b0 b5 bc cb dd 5e 3c
       -0.051636767 0.013347298 -0.022178808 0.013602684
000150 07 0f 3b bd 5e 2e 29 bc 3a ec 6c 3c 38 c9 7a 3b
       -0.045668628 -0.010325996 0.014460618 0.0038266908
000160 4d 81 2e bc 96 06 e8 bb 46 bb b8 bc f6 b1 a9 bc
       -0.010650945 -0.007080863 -0.022550236 -0.020714741
000170 72 4f 2c 3c 69 6f 71 3c eb 40 20 3c df dc af bc
       0.010516988 0.014736035 0.009781103 -0.021467624
000180 85 b4 c2 3c 0e 19 ae bc 44 75 26 bc 3c ce ad bc
       0.023767719 -0.021252181 -0.010159794 -0.021216504
000190 4a a3 59 bc 86 a4 ae bc eb aa 03 bc f4 92 cc 39
       -0.01328356 -0.021318685 -0.0080363555 0.000390194
0001a0 47 3a 4e 3b 9d 25 a1 3a ad 2b 10 3c 55 ad 7d 3c
       0.0031467841 0.0012294535 0.008799476 0.01548322
0001b0 d8 0e 9d 3c 4d 12 9d 3c 1c 12 f6 3b 4c 1c 95 bc
       0.019172117 0.019173766 0.007509483 -0.01820197
0001c0 b4 df 0d bd 0c ad 9b bc d0 04 31 bc 15 2a 46 3d
       -0.034637168 -0.019003414 -0.01080437 0.048379976
0001d0 57 8f 48 bb 5e d3 46 bb 60 a8 00 3d c8 7b 4e 3c
       -0.0030603015 -0.0030338387 0.031410575 0.012602754
0001e0 35 2d 87 bc a7 52 a2 3c a4 8e 2e 3c f4 24 9a bc
       -0.016501049 0.019814802 0.010654125 -0.018816449
0001f0 1f eb 8c 3a 0d 83 49 3d e2 bd af 3b d4 fc 4e 3c
       0.0010751224 0.049197245 0.005363212 0.012633521

action_model._continuous_distribution.log_sigma f4 [1, 2]
000000 c6 9f 07 3d bb 51 80 bc
       0.033111356 -0.015663972

action_model._continuous_distribution.mu.weight f4 [2, 128]
000000 5e 19 15 bc a6 93 54 3c bf 70 1e bd 49 2d 9d 3a
       -0.009100286 0.012974655 -0.03868174 0.0011991645
000010 be f4 60 3c c6 77 4d 3c 38 f4 6c bc 87 a6 03 bd
       0.013730226 0.012540763 -0.014462523 -0.032141235
000020 96 5f 31 3c 63 13 63 3c 19 bd 05 bd b7 45 95 bd
       0.010826012 0.013859603 -0.03265104 -0.07288688
000030 12 a9 2d bd a4 8e 58 3d f7 fe df bc bc 79 40 3d
       -0.042397566 0.052870408 -0.027343256 0.046991095
000040 03 9a 95 3c a7 4e 24 3d 39 4f 33 3c f6 d7 ab 3a
       0.018261915 0.04011407 0.010944181 0.0013110626
000050 39 24 73 3b b5 71 22 3d b5 54 3a bb 5e bc ea bb
       0.0037100448 0.03965922 -0.0028431837 -0.0071635684
000060 a0 c3 0f bc 99 f0 79 bd 00 27 bc bc d4 db c3 3a
       -0.008774668 -0.061020467 -0.022967815 0.0014942833
000070 3f 6a 30 bc 43 6c 4e bd 82 f4 f6 bb 3d 01 1c bc
       -0.010767519 -0.050396215 -0.007536472 -0.00952178
000080 70 d5 60 3c 8b 42 78 bb d2 3d cd bc f6 6d 09 3d
       0.013722762 -0.003788146 -0.025053892 0.033552133
000090 da 34 dc 3c 13 48 ef ba 6f 42 2b 3d f0 aa 0f b9
       0.02688067 -0.0018255733 0.041811403 -0.00013701222
0000a0 61 a6 70 bd 06 be e8 bc 10 6f 13 bc 20 b1 10 3d
       -0.05875242 -0.028410923 -0.008998647 0.03532517
0000b0 44 8a 83 bc 87 f8 5e 3c e6 99 fb bc 2f 50 64 3c
       -0.016057141 0.013609058 -0.030713033 0.013935133
0000c0 4d ab e9 ba 07 3d 3b 3d 0e 9b 75 bc b3 bd cf 3c
       -0.0017827541 0.045712497 -0.014990581 0.02535901
0000d0 54 3f d0 bc c9 44 2d bc 5d 7b 48 3c b2 e8 f3 bc
       -0.025420822 -0.010575482 0.012236443 -0.029774044
0000e0 4f a4 7b bc 1a a1 a9 3b 38 7a 99 bc 4b 26 29 3d
       -0.015358998 0.0051766755 -0.018735036 0.041296285
0000f0 e5 bf 23 3b ec 15 b8 bc 47 68 1c 3c 2b 44 da b9
       0.0024986204 -0.02247139 0.009546346 -0.0004163099
000100 06 8e 0c bd e9 9a 93 3a 2b 30 07 3c 4b ca 46 3c
       -0.03431513 0.0011261377 0.00825123 0.012133191
000110 72 3e 9f 3c 37 f1 7d 3c a5 65 ea bb 5e d8 59 bc
       0.019438956 0.015499405 -0.0071532303 -0.013296215
000120 ac 80 06 bd de 01 d7 bc ea af 10 bc fe d5 06 3d
       -0.032837555 -0.026246008 -0.008831004 0.032918923
000130 4b e1 cb bc 46 65 a9 3c 67 9d 33 bd f6 57 8c bc
       -0.024887701 0.020678174 -0.043851282 -0.017131787
000140 5f f8 a1 3b 03 da c8 3b 78 8c e4 bb 95 1a 23 3d
       0.004942938 0.0061295046 -0.006974753 0.039820272
000150 c8 ae 49 3b 31 0e 1f 3b 60 88 27 bb db 93 32 bc
       0.0030774344 0.0024269933 -0.0025563464 -0.010899509
000160 33 c5 39 bd 77 3e d6 3c 59 8c 4b 3c b5 48 6a 3c
       -0.04535408 0.026152832 0.012423598 0.014299561
000170 5f 8b c1 3c a9 6b 7f bb 2e 45 a4 3c 8d 5b 4c bb
       0.023626028 -0.0038974083 0.020052519 -0.0031182498
000180 99 3c 15 3d e8 20 a2 3c f5 5a 26 3d 08 39 a5 3c
       0.036434744 0.019791082 0.040614087 0.020168796
000190 33 d8 b4 3b de be 41 bc 41 60 84 bb d2 24 04 bd
       0.005518937 -0.011825291 -0.0040397947 -0.032261677
0001a0 58 93 f3 bc 46 3f 42 bd 47 4b 2d 3d c4 49 11 3c
       -0.029733345 -0.047423624 0.04230812 0.008867685
0001b0 34 26 89 bd 7d 9c c8 3c b5 38 f2 bc ba 0f 7f bb
       -0.0669674 0.024488682 -0.029568056 -0.0038919286
0001c0 d8 0d 69 3c a8 18 06 ba 85 c0 07 3c fd 8b cb 39
       0.014224492 -0.00051153684 0.008285646 0.00038823477
0001d0 8b 4e 9c bc 3c a1 c3 3c 1e 88 4a bd e4 e2 48 bd
       -0.019080421 0.023880593 -0.049446218 -0.049044505
0001e0 5e 55 5a bc ec ed d1 bc a8 05 3e bd 96 13 c8 3b
       -0.013326017 -0.025626145 -0.046392113 0.0061058505
0001f0 5c 65 d0 bb d6 6f 87 bc dd 8d 04 bd 1e 3a 13 3c
       -0.006359739 -0.01653282 -0.032361854 0.008986024
000200 ef 68 fe bc a3 a7 3e bc 39 f8 fb bc bf 7b e8 3c
       -0.031055896 -0.011636647 -0.03075801 0.02837932
000210 f1 47 e4 bc 4b 04 58 3c 03 f6 cb 3c 1c 7d 92 3a
       -0.027866336 0.013184617 0.024897581 0.0011176202
000220 3a a1 97 3c 27 41 1c bd 37 24 32 3c d3 9b fc 3b
       0.018509496 -0.03814807 0.010872892 0.0077090054
000230 72 c8 21 bd 6b 3e 34 3d 18 df a0 3b 2c b3 9d bc
       -0.0394978 0.04400484 0.0049094073 -0.019250475
000240 7d e1 89 bc 2a 57 03 bd 77 05 f3 bc 46 85 6a 3c
       -0.016831154 -0.032065548 -0.029665692 0.014314001
000250 1d 1b 0e 3d 95 45 57 3b 5e b8 63 3c 7f 02 0f 3d
       0.034693826 0.003284787 0.013898937 0.03491449
000260 ae 02 4c 3c 5e c6 04 ba 9a bd 40 3d 0e a4 5e 3c
       0.012451811 -0.00050649594 0.04705582 0.013588918
000270 2d 30 82 3c c7 24 94 bb 86 eb f4 3b 70 f3 ae 3c
       0.015892113 -0.0045209858 0.0074743656 0.021356314
000280 bd dc d6 bc ed ea 37 3b 57 c7 e4 3a a9 b9 2f 3a
       -0.026228303 0.002806361 0.0017454427 0.0006703386
000290 9d 68 35 3d f9 45 ec 3c 4d 23 05 bd 9f cd d1 bc
       0.04428922 0.02884196 -0.03250437 -0.025610743
0002a0 3e 75 9c bc 7c c3 c0 bc 9e da b8 b9 21 8f 02 3c
       -0.019098874 -0.023530714 -0.00035258097 0.007968695
0002b0 da 2a ac 3c 2f cd 2c bc 31 68 27 bd 09 7d b6 3c
       0.021016527 -0.010546966 -0.04087085 0.022276418
0002c0 6d 4a 92 bb c5 43 19 3d 19 59 94 bb e2 c4 37 bc
       -0.0044644387 0.037418146 -0.004527223 -0.011216374
0002d0 65 9f 1a 3c 73 04 21 3d 3b 9e f8 bb a6 2a b5 3c
       0.009437417 0.039310884 -0.007587222 0.022115063
0002e0 bd 0f fa 3b 5a 3c 76 3c 84 ce 89 bc c5 e5 81 bc
       0.0076312707 0.015029037 -0.016822107 -0.015856633
0002f0 c2 5b f3 bb f1 1c 98 3b a5 8d 6c bc ab fd 12 bc
       -0.00742671 0.004642122 -0.014438068 -0.008971612
000300 40 7a 29 bc ed cf 38 bd c5 99 fb 3b 23 66 d5 3c
       -0.010344088 -0.04512017 0.007678243 0.02604968
000310 66 ce 21 3d 43 d1 ad bc d8 bb 63 bc 5e 9f 1b bd
       0.039503478 -0.021217948 -0.013899766 -0.03799378
000320 e7 b8 87 bc f3 c9 2a bb 99 f9 16 bd 3f c7 75 3c
       -0.01656766 -0.0026060313 -0.03685913 0.015001117
000330 91 e3 0a 3b 00 59 88 3c 0b 17 00 bd a9 42 9a ba
       0.002119277 0.016644001 -0.031271975 -0.0011769134
000340 3f a1 80 3c 85 46 06 bd 9d e3 9e bc a8 d0 4b bd
       0.015701888 -0.032782096 -0.019395644 -0.049759537
000350 fa 21 93 3c bf d6 11 3d 70 e6 15 bd b2 25 93 38
       0.017960537 0.03560519 -0.036596715 7.0165275e-05
000360 c7 c2 7d bc ad c9 12 3b 7b 6c 51 bc 4a cf ed bc
       -0.015488333 0.002239804 -0.012782211 -0.029029507
000370 3e 79 c2 3c 8b c8 05 3c a0 2b 41 3d ed f7 92 3c
       0.023739453 0.008165489 0.047160745 0.017940486
000380 be 66 eb 3c a2 44 b2 bc 12 44 71 3c 0a 47 46 bc
       0.028735515 -0.021761242 0.014725702 -0.012101898
000390 2c 4c ae 3c 4a 6a 3d 3c 36 d6 18 39 6b 58 8e bb
       0.021276556 0.011560986 0.0001457565 -0.0043440363
0003a0 02 cf b8 3c 94 0b a8 bc 2d e8 8a 3c 28 73 3e bd
       0.022559647 -0.020513333 0.016956413 -0.04649654
0003b0 25 ec c7 bc e2 f9 fa 3c db b6 02 bd 31 99 91 3b
       -0.024404595 0.030636732 -0.031912666 0.0044433107
0003c0 9d e8 d6 bc 1e db e3 3c 2e fe d3 bc 7d 7c 25 bd
       -0.026233966 0.027814444 -0.025878038 -0.040401924
0003d0 65 5d 60 3c 54 80 8e bc c1 6e dc bc 26 90 3a 3b
       0.013694142 -0.017395176 -0.02690828 0.0028467267
0003e0 70 c6 e3 3b 37 d1 b2 bc 99 eb 93 bc bf 97 4e bc
       0.006951146 -0.021828277 -0.018056678 -0.012609421
0003f0 9e c3 82 bc 2b b5 10 3b d9 9c 1c bd ec 8a e5 bc
       -0.015962418 0.002208064 -0.03823552 -0.028020345

action_model._continuous_distribution.mu.bias f4 [2]
000000 79 fd 6c 39 70 2a 23 bb
       0.0002260114 -0.002489712

onnx::Div_51 f4 [6]
000000 18 ce 98 41 4b ca 23 3b 0c 15 9a 41 3d ee eb 3d
       19.100632 0.0024992402 19.260277 0.1152005
000010 bf 7f 12 3b 4e 8c ff 3d
       0.0022353975 0.12477933
