Snake3D/Assets/Snake_9/Snake/checkpoint.pt (torch, 443947 bytes, 44 tensors)

network_body.observation_encoder.processors.0.normalizer.running_mean f4 [6]
00000000: a099 a5c0 a9ff ff3e cb8e 95bf 408a c93c
00000010: 0000 0000 4785 0abd
-5.175003 0.4999974 -1.1684202 0.024602056 0.0 -0.03381851

network_body.observation_encoder.processors.0.normalizer.running_variance f4 [6]
00000000: b641 8b4c abff 9f3f 2098 8d4c 2dfd 2545
00000010: 0000 803f 83bd 4245
7.301061e+07 1.2499899 7.423616e+07 2655.8235 1.0 3115.8445

network_body.processors.0.normalizer.running_mean f4 [6]
00000000: a099 a5c0 a9ff ff3e cb8e 95bf 408a c93c
00000010: 0000 0000 4785 0abd
-5.175003 0.4999974 -1.1684202 0.024602056 0.0 -0.03381851

network_body.processors.0.normalizer.running_variance f4 [6]
00000000: b641 8b4c abff 9f3f 2098 8d4c 2dfd 2545
00000010: 0000 803f 83bd 4245
7.301061e+07 1.2499899 7.423616e+07 2655.8235 1.0 3115.8445

network_body._body_endoder.seq_layers.0.weight f4 [128, 6]
00000000: 2c28 f83d a7ab 24be 0dcd 2abf 83e0 23bd
00000010: 103a cd3c 1630 783f b9d8 283f 3f82 823f
00000020: 8ac2 19bf 4146 173e ee55 3fbf 1fe9 0d3f
00000030: 1836 0c3e a2dc 8ebe 89c5 c43e 4543 973c
00000040: 2a85 0e3f 8cd3 1fbe 4bdb 1a3e d854 26be
00000050: f846 8cbe 0465 7ebf b32e 9dbe 0d80 28bf
00000060: b351 803d 78ed 123f 6038 ad3e 3444 0d3c
00000070: 4930 f53d 0403 6fbd a7f5 8c3e 39f1 cf3e
00000080: 7c37 303e acdd 833e 3189 a23d 8518 ae3e
00000090: 38ac 033f cfa0 41bc d149 89bc 9c7b 27bf
000000a0: da7f 4c3d f917 453e 42f3 edbe e9ce 3e3e
000000b0: 0c31 563f 5e1e dbbe 822a c63e 8c0d a03e
000000c0: 5fe0 9a3c f3ec 0cbf bffb 09bd f15f de3e
000000d0: 5680 013f 986b e9bd 3d98 0abf af36 f43e
000000e0: 9542 a53d 7aa2 383d 3b3a 1c3f 7e85 783e
000000f0: 71bd c2be 0e95 623d 74f9 a0be ea9a f03e
00000100: c451 a2be c121 eebe 8dc0 a73e 2bf7 8cbe
00000110: fa57 34bf 021b 253e f2f7 e0be 141b 5d3f
00000120: aacd 9dbd 31e5 efbd 1ee1 db3e 45cc c3be
00000130: 1581 4c3f 6a64 35be 5bab 0c3f e147 debe
00000140: 67f9 9fbe f8b0 2cbe 6025 623e 4938 673e
00000150: 1ff0 32be 2dcd 29be 88a6 96bd 7dd1 08be
00000160: e45f ea3d 094a 08bf 8ad9 573e 8fd9 8ebd
00000170: c390 933c 3acb 063e 2baa bcbd 468f 81bf
00000180: 8e95 8abf 0f10 173e da6c b53e 0da1 df3e
00000190: 13df 533e 1b06 373e 252b 85bf 1928 7dbe
000001a0: 2278 313f d4f8 a2be 74fe 053e 2b2c f8be
000001b0: 2f6c 283e 94c8 3a3f f104 7a3e 2460 873e
000001c0: 3136 ab3c 99ff 68be 119a a43d 867a 9d3e
000001d0: 13a9 583f 4fa0 5fbd 80ad efbe 46d5 da3e
000001e0: ed43 053e 1a33 63bf a95d 043e 9af8 2e3e
000001f0: 4115 d93d 1e06 eabd 3342 1cbf 4e59 dfbe
00000200: eb12 e2bd 2403 d03d bd6a b3be 22c5 113f
00000210: 4a5e 943e 5158 b13e 5cfa 13bd d927 64bd
00000220: 74b3 963e d133 bb3d 68c7 8b3d 7007 c7be
00000230: 457a 4dbe 27ab 213f c2d2 163f a887 44bf
00000240: 7807 f3bd d919 1dbe aafd 1bbf 573c 833f
00000250: 39f1 9b3e a702 83bf ebdf 943e 8edd e33c
00000260: d6a3 89be 5658 973e e00b 023e f465 21be
00000270: a92b 25bf 35ed 983e f8ba db3e 6468 8abe
00000280: 71b5 793e 0c8a 593f 673e 99be ccda abbe
00000290: 73e7 483f 0c93 d23e 5672 41be af34 d33d
000002a0: 7796 76be 93f9 8a3e 8da6 373d 2800 efbd
000002b0: 7522 333e 8067 5cbf 3831 8c3e 21ae 333e
000002c0: 1943 30be 3404 07be 5293 edbc 7644 f3bc
000002d0: d381 163e 787f 26be ccac eb3e a556 c8be
000002e0: bb1d 16be 1631 80bd a5ca 5bbf 6dec 503e
000002f0: 2c9c 8a3e 5e60 44be 2e36 b9be 7d50 1bbe
00000300: 8a1f 173e 9861 99bd 4dc1 86be c3fe 303d
00000310: 3625 fe3d d4dd c4bd 100b cebe db04 9c3d
00000320: 8f30 623d 4673 023e ef17 493e 5ff0 963e
00000330: 405d 58bd 8a18 123f cc6a f3be af41 b73d
00000340: 5d83 32be 77f4 1abe c0d1 b1be 2fb4 483d
00000350: 327a c9be 81df f8be 6094 7fbe f951 5ebd
00000360: c73a 653d 62c8 dfbe 7110 763e 9041 f8be
00000370: b2c8 043e 8fa2 3fbf 22bc 2b3e 119b 80bf
00000380: 3e1f ecbd 5d86 9a3e 0ace 3d3d 6e1a eabe
00000390: 13c7 60be 7de7 373e b960 82be 76b2 0bbf
000003a0: 7b53 b5be 5b9b 56bf da0a afbe b9fb f13b
000003b0: f9cb 7f3e a8c5 393e 11fb d8be d599 f4be
000003c0: 52e2 7ebf cdf6 833e ffa9 c03c acde 2f3e
000003d0: e029 903e 9bfc 5c3f db24 be3e 7687 fc3e
000003e0: 92c4 81be ba8a 82be d501 71bf 2b85 a03d
000003f0: 7b78 fbbd 242c 61bd d5e6 8a3e 0976 c33e
0.12117037 -0.16081105 -0.6671913 -0.040009033 0.0250521 0.96948373 0.6595569 1.0195998
-0.6006247 0.14772893 -0.74740493 0.5543384 0.1369251 -0.27902704 0.38431957 0.018464694
0.5567194 -0.15608042 0.15122716 -0.16243303 -0.27397895 -0.9937289 -0.3069969 -0.6582039
0.06265583 0.573936 0.33832073 0.008622218 0.119721 -0.058352485 0.27531168 0.40613726
0.17208666 0.2575506 0.079363234 0.34003082 0.5143466 -0.011818125 -0.016758831 -0.6542299
0.049926616 0.19247426 -0.46474653 0.18633617 0.8366859 -0.42796606 0.38704306 0.31260335
0.018905817 -0.55049056 -0.03368735 0.43432572 0.5058645 -0.11397475 -0.5413855 0.4769797
0.0806934 0.045076825 0.6102635 0.24269673 -0.38035157 0.05531793 -0.31440318 0.4699319
-0.31703007 -0.46510127 0.32764092 -0.27532324 -0.7044674 0.16123584 -0.43939167 0.8636944
-0.07705243 -0.11713637 0.42945188 -0.38241783 0.79884464 -0.17714086 0.5494897 -0.43414214
-0.31244966 -0.16864383 0.2208457 0.22580065 -0.17474411 -0.16582175 -0.07355982 -0.13361163
0.11444071 -0.5323797 0.21079078 -0.0697509 0.018013364 0.13163462 -0.092121445 -1.0121849
-1.082689 0.1475222 0.3543461 0.4367756 0.20690565 0.17873423 -1.0403792 -0.24722327
0.69323933 -0.31830466 0.13085347 -0.48471197 0.16447519 0.7296231 0.24415947 0.26440537
0.020899864 -0.22753753 0.08037198 0.3075754 0.84632987 -0.05459624 -0.46812057 0.4274084
0.13014193 -0.8874985 0.12926354 0.17087021 0.10599757 -0.11426948 -0.6103851 -0.43622822
-0.110387646 0.10156849 -0.35042372 0.56941426 0.28978187 0.34637693 -0.036127433 -0.055702064
0.29433787 0.091407426 0.06825143 -0.38872862 -0.20066173 0.6315178 0.5891534 -0.76769495
-0.11866659 -0.15341891 -0.60933936 1.0252789 0.30457476 -1.0235184 0.29077086 0.027815606
-0.2688281 0.29559582 0.12699842 -0.15761548 -0.64519745 0.29868475 0.42916083 -0.2703277
0.2438562 0.8497627 -0.29930422 -0.33565366 0.78478163 0.41127813 -0.18891272 0.10312783
-0.24080835 0.27143535 0.04483657 -0.11669952 0.17493613 -0.8609543 0.273813 0.17546894
-0.17213096 -0.13185197 -0.029000912 -0.02969573 0.14697962 -0.16259563 0.4603027 -0.39128605
-0.14659779 -0.062593624 -0.85856086 0.2040269 0.27072275 -0.19177386 -0.36174148 -0.15167423
0.14758125 -0.07489318 -0.26319352 0.04321171 0.12409441 -0.09612623 -0.40242815 0.076181136
0.05522209 0.12739286 0.19638036 0.29480264 -0.052823305 0.57068694 -0.47542417 0.08948075
-0.17432924 -0.15132318 -0.3473034 0.04899996 -0.3935104 -0.4860802 -0.24958944 -0.054277394
0.055964258 -0.43707567 0.2402971 -0.4848752 0.12967184 -0.7485742 0.16770986 -1.0047323
-0.115293965 0.30180636 0.046339072 -0.4572329 -0.21950941 0.179594 -0.2546442 -0.54569185
-0.35415253 -0.83830804 -0.34187967 0.007384744 0.24980153 0.18141806 -0.42379048 -0.47773615
-0.9956409 0.25774232 0.02351856 0.17174786 0.28156948 0.86322945 0.37137493 0.49322098
-0.25345284 -0.25496465 -0.9414342 0.078379 -0.12278839 -0.054973736 0.27129236 0.3817599

network_body._body_endoder.seq_layers.0.bias f4 [128]
00000000: f5d9 9e3c 6c3d 9d3c 5f0f 57bd 7692 71bc
00000010: b873 9c3c d89e 0bbd ae73 8bbc d632 863c
00000020: 1f75 0bbd ccd9 893b 40ea 12bd 87a3 003d
00000030: 8a71 153b 714b db3a d7ee 10bd 1a29 4637
00000040: 53a1 a6bc 1c3a 37bc 991e 76bc 03ef 61bb
00000050: 3352 69bc 8fa7 053d 6944 233d 8210 10bc
00000060: f2f8 d8bc de44 c93b 766a fc3a e222 65bd
00000070: 9d3f a0bc 2f3e 063d e2ad 5ebd 9030 913c
00000080: 80d4 c03a 9ea3 b23c f564 7a3c 53fd 873c
00000090: 2a4d e63a ac0c 3dbb ae63 efbc ce9b 02bd
000000a0: 955d c63c 6dd0 36bc 16b9 52bd d3e2 d33c
000000b0: a45a e4bb 8604 783c 619f 233d 2b46 9ebc
000000c0: d791 0b3a 685b 5e3c c5f6 c03b f63b 7fbd
000000d0: a2f4 b43c 2861 09bd a184 b03c bcbe 963c
000000e0: ab75 2ebb 7ffc 06bc 6ae2 adbc fd7e 06bd
000000f0: 7145 75bc 3c17 173b 48b1 263c b276 08bb
00000100: f515 41bd dbdf 1ebc d023 2ebd 7701 a83b
00000110: 5aa1 983c ed3c cb3b 52ac 5d3c 1765 b23c
00000120: e468 7cbc cf4e 0a3d 7d26 973c 8681 c2bc
00000130: fdf9 01bd 5d7a 073c 91f9 afbc 0eb6 c23c
00000140: 57cf f53c 2b31 0e3b 9da1 dcbb 664e 3fbc
00000150: 5b5b 96bc 6d50 af3c 945b 403b 9e01 6c3c
00000160: 61ad 323c 2553 d03c 2947 b0ba 6e29 a4bc
00000170: 1b3d 653c 02ca 843b d250 ed3c 409f 33bc
00000180: a8eb 8d3b 81ab 803c 2110 d63b 3306 743c
00000190: ca22 d13a b736 5ebc 8e70 873c 6c8f 6c3c
000001a0: 032e 103d 27dd 453d d6b8 aabc 96f0 b0bd
000001b0: 9bbb 053d 0e7c cc3c e5b3 343c 4bb0 083c
000001c0: de33 a4bc 1da2 91bb a792 f83c d7c2 85bc
000001d0: 3a5b b43c 87b3 ebbb 8b6f 813c 8164 2cbd
000001e0: c8b4 c33c b835 e2bc 02c6 29bb 8556 c5bc
000001f0: 61e8 413b c0a0 8e3c 9b05 b3bc 8fdc a23b
0.01939104 0.019194327 -0.052504893 -0.014744392 0.019098148 -0.034087032 -0.017022934 0.016381662
-0.034047242 0.0042068716 -0.03586793 0.03140595 0.002280327 0.0016730857 -0.035384025 1.1811289e-05
-0.020340597 -0.011183288 -0.0150219435 -0.0034474737 -0.014240789 0.0326305 0.039860163 -0.008792998
-0.026485894 0.006142243 0.0019257802 -0.05594147 -0.019561583 0.032774147 -0.054365046 0.017723352
0.0014711767 0.021806534 0.015282859 0.016600287 0.0017570604 -0.0028846664 -0.029222336 -0.03188687
0.024214545 -0.011158091 -0.051446043 0.025864994 -0.006968813 0.015137797 0.039946917 -0.019320568
0.0005324161 0.013571598 0.005888792 -0.062313043 0.022089306 -0.03353992 0.021547617 0.018401496
-0.0026620429 -0.008238911 -0.021226127 -0.03283595 -0.014970169 0.002305462 0.010174103 -0.00208227
-0.04714008 -0.009696926 -0.042514622 0.0051271277 0.018631626 0.0062023313 0.013529854 0.021776719
-0.015405867 0.033766564 0.01845097 -0.023743402 -0.031732548 0.00826892 -0.021481307 0.023768451
0.030006094 0.0021696787 -0.006733133 -0.0116764065 -0.018354109 0.021400655 0.002935146 0.014404682
0.010905595 0.025430271 -0.0013448942 -0.020039286 0.013991619 0.0040524015 0.028969202 -0.010963261
0.004331071 0.01570678 0.0065326844 0.014894056 0.0015955803 -0.01356285 0.016533162 0.014438491
0.03520013 0.04830661 -0.02084009 -0.08639638 0.032649618 0.024961498 0.011029218 0.008342813
-0.020044263 -0.0044443742 0.030343367 -0.016328258 0.022016156 -0.007193032 0.015800258 -0.042088035
0.023889914 -0.027613506 -0.0025905375 -0.024089107 0.0029587972 0.017410636 -0.021853259 0.0049701403

network_body._body_endoder.seq_layers.2.weight f4 [128, 128]
00000000: fdb5 1e3e 58f4 2abd f197 e1bd 270c b8bd
00000010: 8635 c7bd 08a7 81bd 9b5c 9abc 9b6f 70bd
00000020: 43d5 eb3d 3724 903d 749c b3bc c5e7 823d
00000030: 59ae 9abd 0329 be3d c532 92bd 1e06 713d
00000040: c429 06be b213 0b3e d64b 57bc 2709 2fbe
00000050: 561d a23b a266 6c3c 88da 973c da97 afbc
00000060: 5e71 443e 4109 a13c 5286 c0bd 5c2c 8ebd
00000070: 2bdf ab3d ee31 91bc 1fc5 2bbe d4b9 ca3d
00000080: 2814 bd3d 0f45 d2bc e365 adbc 9c9e b7bc
00000090: b596 6fbd e274 2b3d 18ae 86bd 8134 e2bd
000000a0: a9b1 843e 98db 173e 571e 41be 9bf0 0bbe
000000b0: 7db8 713c c196 0e3e c495 923d 6833 44bd
000000c0: b266 12be 9fad 923c 36df dd3d a9e0 f23d
000000d0: 7add 363e 0a51 4abc f39b ae3d 9702 cfbd
000000e0: 4e1f 4a3e d744 97bc 5359 f4bc aeca a73d
000000f0: a3e8 23bc eae5 b8bd 5d6e 053e 310e 18bd
00000100: ac25 793e 4f46 04bd 4599 40bd d4d1 1a3d
00000110: 292a a33d 8b61 df3c 431b 27be 9291 2bbe
00000120: 59a0 6bbc f4c3 68bd a395 f3bc f77f 84bd
00000130: 99bb 5ebd 1146 1c3e 8faa 803d 0d00 f13d
00000140: 3533 a73c 0c7c 22be cc74 afbd 971c 72bd
00000150: 132d aabc d48c c63d 6da1 873d 1f4d 983c
00000160: 2945 1ebd 1120 45bc a5ff 0fbe 190e 6fbd
00000170: e166 513e 50ca 99bc 99c5 0e3e 96e1 86bd
00000180: 5c4c b4bc 2629 e3bb 304c 5bbd 9f5e dc3d
00000190: fcda 29bd e15a 1abe b5f5 85bd c12e c03d
000001a0: 3380 863d 17dd 33bc 4425 03be 57ec 5bbc
000001b0: f79c b33d 67a7 a33d aec1 05bd 76c4 163d
000001c0: d691 b9bc cfd2 61bd 090a 08be 668e 5dbc
000001d0: 2764 39be db4a 31be 9b41 b9bd 04bc 68bd
000001e0: 5b56 e93d 5d7f 9fbc 2fb0 df3d 4517 07be
000001f0: d6de 043d 7dbb 8cbd c72d fc3d 0de4 a2bd
00000200: ee87 113e e956 23be 019c 36bc 6f13 10be
00000210: d468 a0bd 0c17 7b3c a946 b63d 4d58 d1bd
00000220: 0ce6 0ebc 6700 723a 9927 efbc 7081 e2bd
00000230: 0324 ad3d 0357 b13d b569 be3d fcdc 943a
00000240: f2f7 85bd bc26 9b3d cedc e0bd a637 e0bd
00000250: 68e2 e13d 2548 dd3b 1c68 dfbd f2f3 09bd
00000260: 3f85 a9bd 7f6d 103d 114e 003c 6d6d 7a3c
00000270: 1b8e 133e afff 023e 3964 9d3d 724c eabd
00000280: ad60 e53d 4eb0 fc3c 2942 e83c da8e c7bd
00000290: a224 27be d37e 213d d65f 843d 400e 003d
000002a0: 393e 683d 9d58 fd3d 3054 0e3d a30e b4bd
000002b0: 9d13 0bbe ab2f 17be bea8 233d 18cd 9c3b
000002c0: a50f 0d3e 2c5c e0bc 54d3 a8bc 2260 0ebc
000002d0: 00f7 4bbc a89c 8ebd 2912 38bd 7ee9 4ebd
000002e0: 6084 393e d2ee 1f3d 843f 40bd e007 a23c
000002f0: f5cb 26be 4dda 363e 6f8a bd3d 4c1d 14be
00000300: cc27 48bc e336 fa3d 9ada abbd f3b8 fcbc
00000310: efb1 493d 818a 56bd f4ab 0cbe fa5e f1bd
00000320: 1e5b e7bd cf2b 1fbd 360b 3ebc cffd 9b3e
00000330: 644d a73d 1c66 bc3d b431 e3bc 35f9 8ebd
00000340: b9bc 233e e80d eebc 0998 dd3d c259 083e
00000350: f835 1fbd 4559 16bc a85b bf3c 0417 7d3d
00000360: a627 f93c fbc9 2a3c 6901 9e3c 2726 e63c
00000370: 81ae 163d 2173 0cbe 1f89 60bd 5fdd 78bc
00000380: 8a4c 703b a79f 733c 865b 553e cf90 013d
00000390: 42d9 a83c c589 123d 9f81 f03d 94fe 5f3b
000003a0: 992a c03c df91 c8bd 7fd3 1c3d df7a 783d
000003b0: 5bec 29be 8ab3 5c3d d00d e03c 4b2f b73d
000003c0: 8288 1dbe 8db9 a03d 87aa 273e e714 2dbe
000003d0: 390e 90bd b592 c63c 6091 223d ac15 d53d
000003e0: fa43 43bd a090 41be cdf5 303d 6a3a 28bc
000003f0: d5de ea3d bd6f cc3d de75 98bd eb0d 4ebb
0.1549911 -0.04173693 -0.11015309 -0.08986693 -0.09727006 -0.06330687 -0.018842986 -0.058700185
0.11515286 0.070381574 -0.021925189 0.06391863 -0.075527854 0.09285166 -0.0713859 0.058843724
-0.1310187 0.13581732 -0.013140639 -0.17093335 0.004947345 0.014428766 0.018536821 -0.021434713
0.19183871 0.019657733 -0.094006196 -0.06942055 0.08392175 -0.017724004 -0.16774414 0.09898725
0.0923236 -0.025667695 -0.021166747 -0.022414498 -0.058493335 0.041859515 -0.065761745 -0.110451706
0.25916794 0.14829862 -0.1885923 -0.13666002 0.014753458 0.13924696 0.07157472 -0.047900587
-0.14296988 0.017905055 0.1083359 0.11859257 0.17857924 -0.012348423 0.08525839 -0.10107916
0.19738504 -0.018465443 -0.02982775 0.08192955 -0.010004195 -0.090282276 0.13030382 -0.03712291
0.24330777 -0.032293614 -0.04702117 0.037797764 0.07967026 0.027268192 -0.16318993 -0.1675475
-0.014381492 -0.0568275 -0.029734438 -0.0646972 -0.054378126 0.15261103 0.062825315 0.11767588
0.02041016 -0.15867633 -0.08567199 -0.059109297 -0.020773446 0.096948296 0.066225864 0.018591462
-0.038640175 -0.012031571 -0.14062364 -0.058363054 0.20449401 -0.018773228 0.13942565 -0.06585996
-0.022009067 -0.0069323955 -0.053539455 0.10760235 -0.041468605 -0.1507373 -0.065410055 0.093839176
0.06567421 -0.010978005 -0.12807184 -0.013423047 0.08770173 0.07990914 -0.03265541 0.036808454
-0.022652548 -0.055132683 -0.13285078 -0.01352272 -0.18104611 -0.17313711 -0.090457164 -0.05681993
0.11393424 -0.019469911 0.10922276 -0.1319247 0.032439075 -0.06871698 0.12313419 -0.079536535
0.1421201 -0.15951122 -0.011145593 -0.14069913 -0.078324944 0.015325319 0.08900196 -0.1022192
-0.00872184 0.00092316273 -0.029193686 -0.110598445 0.08454134 0.08659174 0.09297506 0.0011357362
-0.065414324 0.07575747 -0.10979615 -0.10948114 0.11029512 0.006752985 -0.10908529 -0.03367991
-0.08277368 0.035260674 0.0078311125 0.015284878 0.14409678 0.12792848 0.076851316 -0.11440362
0.1120008 0.030845787 0.02835186 -0.09744044 -0.16322568 0.03942759 0.06463592 0.03126359
0.056699965 0.12370417 0.034748256 -0.08791854 -0.135817 -0.14764278 0.039955847 0.0047851913
0.13775499 -0.027387701 -0.020608582 -0.008689912 -0.012449026 -0.069634736 -0.044939194 -0.050515644
0.18116903 0.039046116 -0.046935573 0.019779146 -0.16288741 0.17856713 0.0925492 -0.14464301
-0.01221652 0.122175 -0.08391304 -0.03084991 0.049241956 -0.05237818 -0.1373747 -0.117856935
-0.11296676 -0.03886014 -0.011599353 0.30467078 0.08169058 0.09199163 -0.027733661 -0.06981126
0.1598996 -0.029059365 0.10820014 0.1331549 -0.038869828 -0.009176557 0.023359135 0.061789528
0.030414414 0.010424132 0.019287782 0.028094364 0.036787514 -0.13715793 -0.05481827 -0.015189498
0.0036666715 0.014869607 0.20835695 0.03163224 0.02061141 0.03577592 0.11743473 0.003417884
0.023457812 -0.09793448 0.038287636 0.060664054 -0.16594069 0.05388216 0.027350336 0.08944567
-0.15384105 0.07847891 0.16373645 -0.16902505 -0.07033963 0.024239877 0.03968942 0.10404524
-0.04767225 -0.18902826 0.043203164 -0.010267833 0.11468283 0.0998225 -0.074443564 -0.0031441401

network_body._body_endoder.seq_layers.2.bias f4 [128]
00000000: 9687 0b3d d0b3 37bd 5766 8dbb 4c15 9bbb
00000010: 3683 64bb 7297 0ebd ecd2 5a3b 8965 a13b
00000020: 920c 87bd 59a7 213b 222e 7b3c 17a7 683c
00000030: bb6c 133c 4f63 553d e807 793c 398f 8a3c
00000040: 82ec 3cbc 5ae8 ae3c e7b6 c9bb 9809 40bb
00000050: 38f6 7dbb f9c3 713b 66ab 51bc 5fb1 4dbc
00000060: 04f2 8ebb 93f5 503c 9742 8c3a 776e 1ebd
00000070: 3972 c6bc edb9 443a cf6e 553c 6e59 0d3a
00000080: 418d bf3b 0025 77bc 2cde b5bb 6120 4a3c
00000090: cb8e 133d 5f1f 5fbb 0fc7 e1bb 09e5 fe3c
000000a0: 9bcc 703c 9707 df3b 4ef5 363c 2a3e 16bc
000000b0: d49f 543c 6d79 07bc 3882 383c dc3b aabb
000000c0: 087f 1bbc 5c11 d23c b58d 053c 8584 80bc
000000d0: 195f 5ebc aa67 27bd ab59 0ebd 3cb3 c9ba
000000e0: 27ac c63c 0d76 60bd 1091 103c a120 473c
000000f0: 5776 143c 2b4f 97bc 54f9 7abc 40ce dfbc
00000100: 31ff fc3b fbc4 033d 11f9 e6bc 04df 61bd
00000110: e8e8 36bc 33da e6bb 6870 a7bc 4453 4e3c
00000120: fc9d 153c e6f8 d23a 8a64 493d 0553 90bb
00000130: 5cb4 ce3c ba9d 80bb 7092 f83b aa6e 093c
00000140: 1381 53bd a0ae 5a3c 55b0 b5bc cbdd 5e3c
00000150: 070f 3bbd 5e2e 29bc 3aec 6c3c 38c9 7a3b
00000160: 4d81 2ebc 9606 e8bb 46bb b8bc f6b1 a9bc
00000170: 724f 2c3c 696f 713c eb40 203c dfdc afbc
00000180: 85b4 c23c 0e19 aebc 4475 26bc 3cce adbc
00000190: 4aa3 59bc 86a4 aebc ebaa 03bc f492 cc39
000001a0: 473a 4e3b 9d25 a13a ad2b 103c 55ad 7d3c
000001b0: d80e 9d3c 4d12 9d3c 1c12 f63b 4c1c 95bc
000001c0: b4df 0dbd 0cad 9bbc d004 31bc 152a 463d
000001d0: 578f 48bb 5ed3 46bb 60a8 003d c87b 4e3c
000001e0: 352d 87bc a752 a23c a48e 2e3c f424 9abc
000001f0: 1feb 8c3a 0d83 493d e2bd af3b d4fc 4e3c
0.03406485 -0.044849217 -0.0043151784 -0.0047327634 -0.0034868247 -0.0348124 0.003338988 0.004925434
-0.065941945 0.0024666397 0.015330823 0.014199994 0.008998091 0.05209666 0.015199639 0.016913997
-0.011530997 0.021351028 -0.006155837 -0.0029302593 -0.0038751494 0.003689049 -0.012797212 -0.012554496
-0.0043623466 0.012753862 0.0010700998 -0.038679566 -0.024224387 0.0007504512 0.013026907 0.0005392049
0.005845696 -0.015084505 -0.0055501666 0.012336821 0.03602485 -0.0034045798 -0.0068901847 0.031115072
0.014697219 0.0068063247 0.011166884 -0.0091700945 0.012977559 -0.008268696 0.011261515 -0.005195124
-0.009490736 0.025643043 0.008151461 -0.01568819 -0.013572478 -0.040870346 -0.034753483 -0.0015388499
0.02425201 -0.054800082 0.008823648 0.012153775 0.009061418 -0.018470367 -0.0153182335 -0.027320027
0.007720851 0.032170277 -0.028194936 -0.055144325 -0.011163928 -0.0070450543 -0.020439342 0.012593094
0.009131905 0.0016095906 0.049168147 -0.004404428 0.025232486 -0.0039250525 0.007585816 0.008388201
-0.051636767 0.013347298 -0.022178808 0.013602684 -0.045668628 -0.010325996 0.014460618 0.0038266908
-0.010650945 -0.007080863 -0.022550236 -0.020714741 0.010516988 0.014736035 0.009781103 -0.021467624
0.023767719 -0.021252181 -0.010159794 -0.021216504 -0.01328356 -0.021318685 -0.0080363555 0.000390194
0.0031467841 0.0012294535 0.008799476 0.01548322 0.019172117 0.019173766 0.007509483 -0.01820197
-0.034637168 -0.019003414 -0.01080437 0.048379976 -0.0030603015 -0.0030338387 0.031410575 0.012602754
-0.016501049 0.019814802 0.010654125 -0.018816449 0.0010751224 0.049197245 0.005363212 0.012633521

action_model._continuous_distribution.log_sigma f4 [1, 2]
00000000: c69f 073d bb51 80bc
0.033111356 -0.015663972

action_model._continuous_distribution.mu.weight f4 [2, 128]
00000000: 5e19 15bc a693 543c bf70 1ebd 492d 9d3a
00000010: bef4 603c c677 4d3c 38f4 6cbc 87a6 03bd
00000020: 965f 313c 6313 633c 19bd 05bd b745 95bd
00000030: 12a9 2dbd a48e 583d f7fe dfbc bc79 403d
00000040: 039a 953c a74e 243d 394f 333c f6d7 ab3a
00000050: 3924 733b b571 223d b554 3abb 5ebc eabb
00000060: a0c3 0fbc 99f0 79bd 0027 bcbc d4db c33a
00000070: 3f6a 30bc 436c 4ebd 82f4 f6bb 3d01 1cbc
00000080: 70d5 603c 8b42 78bb d23d cdbc f66d 093d
00000090: da34 dc3c 1348 efba 6f42 2b3d f0aa 0fb9
000000a0: 61a6 70bd 06be e8bc 106f 13bc 20b1 103d
000000b0: 448a 83bc 87f8 5e3c e699 fbbc 2f50 643c
000000c0: 4dab e9ba 073d 3b3d 0e9b 75bc b3bd cf3c
000000d0: 543f d0bc c944 2dbc 5d7b 483c b2e8 f3bc
000000e0: 4fa4 7bbc 1aa1 a93b 387a 99bc 4b26 293d
000000f0: e5bf 233b ec15 b8bc 4768 1c3c 2b44 dab9
00000100: 068e 0cbd e99a 933a 2b30 073c 4bca 463c
00000110: 723e 9f3c 37f1 7d3c a565 eabb 5ed8 59bc
00000120: ac80 06bd de01 d7bc eaaf 10bc fed5 063d
00000130: 4be1 cbbc 4665 a93c 679d 33bd f657 8cbc
00000140: 5ff8 a13b 03da c83b 788c e4bb 951a 233d
00000150: c8ae 493b 310e 1f3b 6088 27bb db93 32bc
00000160: 33c5 39bd 773e d63c 598c 4b3c b548 6a3c
00000170: 5f8b c13c a96b 7fbb 2e45 a43c 8d5b 4cbb
00000180: 993c 153d e820 a23c f55a 263d 0839 a53c
00000190: 33d8 b43b debe 41bc 4160 84bb d224 04bd
000001a0: 5893 f3bc 463f 42bd 474b 2d3d c449 113c
000001b0: 3426 89bd 7d9c c83c b538 f2bc ba0f 7fbb
000001c0: d80d 693c a818 06ba 85c0 073c fd8b cb39
000001d0: 8b4e 9cbc 3ca1 c33c 1e88 4abd e4e2 48bd
000001e0: 5e55 5abc eced d1bc a805 3ebd 9613 c83b
000001f0: 5c65 d0bb d66f 87bc dd8d 04bd 1e3a 133c
00000200: ef68 febc a3a7 3ebc 39f8 fbbc bf7b e83c
00000210: f147 e4bc 4b04 583c 03f6 cb3c 1c7d 923a
00000220: 3aa1 973c 2741 1cbd 3724 323c d39b fc3b
00000230: 72c8 21bd 6b3e 343d 18df a03b 2cb3 9dbc
00000240: 7de1 89bc 2a57 03bd 7705 f3bc 4685 6a3c
00000250: 1d1b 0e3d 9545 573b 5eb8 633c 7f02 0f3d
00000260: ae02 4c3c 5ec6 04ba 9abd 403d 0ea4 5e3c
00000270: 2d30 823c c724 94bb 86eb f43b 70f3 ae3c
00000280: bddc d6bc edea 373b 57c7 e43a a9b9 2f3a
00000290: 9d68 353d f945 ec3c 4d23 05bd 9fcd d1bc
000002a0: 3e75 9cbc 7cc3 c0bc 9eda b8b9 218f 023c
000002b0: da2a ac3c 2fcd 2cbc 3168 27bd 097d b63c
000002c0: 6d4a 92bb c543 193d 1959 94bb e2c4 37bc
000002d0: 659f 1a3c 7304 213d 3b9e f8bb a62a b53c
000002e0: bd0f fa3b 5a3c 763c 84ce 89bc c5e5 81bc
000002f0: c25b f3bb f11c 983b a58d 6cbc abfd 12bc
00000300: 407a 29bc edcf 38bd c599 fb3b 2366 d53c
00000310: 66ce 213d 43d1 adbc d8bb 63bc 5e9f 1bbd
00000320: e7b8 87bc f3c9 2abb 99f9 16bd 3fc7 753c
00000330: 91e3 0a3b 0059 883c 0b17 00bd a942 9aba
00000340: 3fa1 803c 8546 06bd 9de3 9ebc a8d0 4bbd
00000350: fa21 933c bfd6 113d 70e6 15bd b225 9338
00000360: c7c2 7dbc adc9 123b 7b6c 51bc 4acf edbc
00000370: 3e79 c23c 8bc8 053c a02b 413d edf7 923c
00000380: be66 eb3c a244 b2bc 1244 713c 0a47 46bc
00000390: 2c4c ae3c 4a6a 3d3c 36d6 1839 6b58 8ebb
000003a0: 02cf b83c 940b a8bc 2de8 8a3c 2873 3ebd
000003b0: 25ec c7bc e2f9 fa3c dbb6 02bd 3199 913b
000003c0: 9de8 d6bc 1edb e33c 2efe d3bc 7d7c 25bd
000003d0: 655d 603c 5480 8ebc c16e dcbc 2690 3a3b
000003e0: 70c6 e33b 37d1 b2bc 99eb 93bc bf97 4ebc
000003f0: 9ec3 82bc 2bb5 103b d99c 1cbd ec8a e5bc
-0.009100286 0.012974655 -0.03868174 0.0011991645 0.013730226 0.012540763 -0.014462523 -0.032141235
0.010826012 0.013859603 -0.03265104 -0.07288688 -0.042397566 0.052870408 -0.027343256 0.046991095
0.018261915 0.04011407 0.010944181 0.0013110626 0.0037100448 0.03965922 -0.0028431837 -0.0071635684
-0.008774668 -0.061020467 -0.022967815 0.0014942833 -0.010767519 -0.050396215 -0.007536472 -0.00952178
0.013722762 -0.003788146 -0.025053892 0.033552133 0.02688067 -0.0018255733 0.041811403 -0.00013701222
-0.05875242 -0.028410923 -0.008998647 0.03532517 -0.016057141 0.013609058 -0.030713033 0.013935133
-0.0017827541 0.045712497 -0.014990581 0.02535901 -0.025420822 -0.010575482 0.012236443 -0.029774044
-0.015358998 0.0051766755 -0.018735036 0.041296285 0.0024986204 -0.02247139 0.009546346 -0.0004163099
-0.03431513 0.0011261377 0.00825123 0.012133191 0.019438956 0.015499405 -0.0071532303 -0.013296215
-0.032837555 -0.026246008 -0.008831004 0.032918923 -0.024887701 0.020678174 -0.043851282 -0.017131787
0.004942938 0.0061295046 -0.006974753 0.039820272 0.0030774344 0.0024269933 -0.0025563464 -0.010899509
-0.04535408 0.026152832 0.012423598 0.014299561 0.023626028 -0.0038974083 0.020052519 -0.0031182498
0.036434744 0.019791082 0.040614087 0.020168796 0.005518937 -0.011825291 -0.0040397947 -0.032261677
-0.029733345 -0.047423624 0.04230812 0.008867685 -0.0669674 0.024488682 -0.029568056 -0.0038919286
0.014224492 -0.00051153684 0.008285646 0.00038823477 -0.019080421 0.023880593 -0.049446218 -0.049044505
-0.013326017 -0.025626145 -0.046392113 0.0061058505 -0.006359739 -0.01653282 -0.032361854 0.008986024
-0.031055896 -0.011636647 -0.03075801 0.02837932 -0.027866336 0.013184617 0.024897581 0.0011176202
0.018509496 -0.03814807 0.010872892 0.0077090054 -0.0394978 0.04400484 0.0049094073 -0.019250475
-0.016831154 -0.032065548 -0.029665692 0.014314001 0.034693826 0.003284787 0.013898937 0.03491449
0.012451811 -0.00050649594 0.04705582 0.013588918 0.015892113 -0.0045209858 0.0074743656 0.021356314
-0.026228303 0.002806361 0.0017454427 0.0006703386 0.04428922 0.02884196 -0.03250437 -0.025610743
-0.019098874 -0.023530714 -0.00035258097 0.007968695 0.021016527 -0.010546966 -0.04087085 0.022276418
-0.0044644387 0.037418146 -0.004527223 -0.011216374 0.009437417 0.039310884 -0.007587222 0.022115063
0.0076312707 0.015029037 -0.016822107 -0.015856633 -0.00742671 0.004642122 -0.014438068 -0.008971612
-0.010344088 -0.04512017 0.007678243 0.02604968 0.039503478 -0.021217948 -0.013899766 -0.03799378
-0.01656766 -0.0026060313 -0.03685913 0.015001117 0.002119277 0.016644001 -0.031271975 -0.0011769134
0.015701888 -0.032782096 -0.019395644 -0.049759537 0.017960537 0.03560519 -0.036596715 7.0165275e-05
-0.015488333 0.002239804 -0.012782211 -0.029029507 0.023739453 0.008165489 0.047160745 0.017940486
0.028735515 -0.021761242 0.014725702 -0.012101898 0.021276556 0.011560986 0.0001457565 -0.0043440363
0.022559647 -0.020513333 0.016956413 -0.04649654 -0.024404595 0.030636732 -0.031912666 0.0044433107
-0.026233966 0.027814444 -0.025878038 -0.040401924 0.013694142 -0.017395176 -0.02690828 0.0028467267
0.006951146 -0.021828277 -0.018056678 -0.012609421 -0.015962418 0.002208064 -0.03823552 -0.028020345

action_model._continuous_distribution.mu.bias f4 [2]
00000000: 79fd 6c39 702a 23bb
0.0002260114 -0.002489712

exp_avg f4 [128, 6]
00000000: 1cad 8b38 fda5 f5b4 9cdd fa38 e82a c238
00000010: 0000 0000 96c1 ebb8 bf5a f938 e809 c035
00000020: 808e 7fb7 9d4f 96b9 0000 0000 7ace b739
00000030: 5406 51b8 dc55 f2b3 8cef 76b8 7247 b937
00000040: 0000 0000 8377 e6b7 cd31 1738 2ed9 29b4
00000050: 74ad 8238 4e15 0838 0000 0000 d39f 23b8
00000060: 02dd cab8 9db4 8733 d55f cfb8 de4e 6db7
00000070: 0000 0000 8d12 8637 c73d 25b8 0f74 8434
00000080: 1064 8fb8 03b0 52b8 0000 0000 e8ac 7e38
00000090: fc03 96b8 c50d 2234 5ff3 afb8 1bbb 03b8
000000a0: 0000 0000 9bc0 1c38 e404 96b8 e74f 48b5
000000b0: 708b 11b9 3ae0 1b39 0000 0000 386b 3fb9
000000c0: 1216 4b37 b452 3035 cc2d 7bb7 6fe3 09b9
000000d0: 0000 0000 3fb9 2839 11e0 21b7 3ee9 49b5
000000e0: f76a d837 c332 1e39 0000 0000 3e4f 41b9
000000f0: 616f c936 561a 9134 2fc0 be35 3de6 61b8
00000100: 0000 0000 36ac 8a38 5016 c938 a4f8 7534
00000110: 2c7c aa38 a529 3db8 0000 0000 b84b 6a38
00000120: f82d 97b8 ba89 30b4 ebea b4b8 4cc6 0538
00000130: 0000 0000 127d 27b8 74ce d738 5cd7 6235
00000140: c2dd 5b38 97be 30b9 0000 0000 80d8 5839
00000150: 186a 2f37 b881 7934 0cff b336 721d 43b8
00000160: 0000 0000 63c0 6e38 a438 b8b6 e38a 5a35
00000170: c0ee 1ab8 c1c5 2bb9 0000 0000 566a 5139
00000180: fa36 c8b7 82ea abb4 bee5 a9b6 8141 8638
00000190: 0000 0000 a371 a4b8 3c07 2bb7 56c2 e6b4
000001a0: 99ae 04b7 43a5 b438 0000 0000 58e0 dcb8
000001b0: 4a5b 56b8 f2a9 2e34 f1ad a0b8 6293 0cb8
000001c0: 0000 0000 0c7a 2838 8055 32b9 80f9 49b4
000001d0: 65b6 6bb9 1806 1338 0000 0000 f397 3db8
000001e0: c82a c4b7 4bcb fe34 4002 9bb8 c830 c9b8
000001f0: 0000 0000 cc76 f438 9044 9cb6 d6d6 ecb4
00000200: 194d fc37 564a b938 0000 0000 50a8 e2b8
00000210: 88ad 31b8 7e31 0735 fb68 9ab8 7f5c d6b8
00000220: 0000 0000 50db 0139 9633 cc37 a0f3 1235
00000230: a66d 48b6 f8c0 e5b8 0000 0000 929a 0c39
00000240: 79cb be37 28c2 c734 c5d1 9536 765f 9bb8
00000250: 0000 0000 8cdd be38 e72c ee37 3aa6 e835
00000260: 2260 a3b8 f4a3 b6b9 0000 0000 e6db de39
00000270: 1b3c dcb8 2c1e bfb5 096d dab8 c776 9539
00000280: 0000 0000 f9e1 b6b9 3690 1cb8 b7c2 e4b4
00000290: caee 72b8 42dd b238 0000 0000 fae3 dab8
000002a0: 7a75 1b37 443d 1035 26c4 d736 3d06 e1b8
000002b0: 0000 0000 2aed 0939 dff6 5838 a2e8 2435
000002c0: 9339 2538 c1f8 00b9 0000 0000 f1cd 1d39
000002d0: fdd7 b2b8 2883 8d33 1145 03b9 c6b9 74b7
000002e0: 0000 0000 6f59 8b37 bbe1 16b8 1889 14b5
000002f0: 4dc9 c9b7 b935 e838 0000 0000 a81d 0eb9
00000300: d509 be38 a0ce 2935 c11b 6338 1e0c 04b9
00000310: 0000 0000 d63c 2239 5b5b a1b7 5863 24b5
00000320: d85d 4937 529c 0039 0000 0000 5e52 1db9
00000330: de9a 4c37 5443 50b4 8512 2838 16cf 2438
00000340: 0000 0000 cff0 47b8 8042 7537 0ec8 07b5
00000350: 9808 8d38 d98e d538 0000 0000 3021 02b9
00000360: baea 50b8 7e86 9f34 ced8 bdb8 6d08 7eb8
00000370: 0000 0000 6969 9938 91f6 bfb6 e46d 6635
00000380: 5389 85b8 c81d 35b9 0000 0000 56ce 5c39
00000390: 60ac 9237 1eef 9034 1abc 0235 0d39 61b8
000003a0: 0000 0000 1a71 8a38 8a7e 87b7 4d79 4cb4
000003b0: c798 3cb7 9008 2138 0000 0000 9e0a 44b8
000003c0: d558 8db8 f924 b5b5 ed5e 92b7 016a 8d39
000003d0: 0000 0000 3a41 adb9 840f 2b38 84c6 9534
000003e0: acd9 1a38 8016 6ab8 0000 0000 c54a 8f38
000003f0: 25fa b2b7 5804 7734 42a4 33b8 30d7 42b8
6.6602806e-05 -4.5755579e-07 0.00011962207 9.258633e-05 0.0 -0.000112417314 0.00011890148 1.4307998e-06
-1.5232363e-05 -0.00028669546 0.0 0.00035058317 -4.9835377e-05 -1.1284621e-07 -5.8874066e-05 2.2086988e-05
0.0 -2.7473789e-05 3.6047586e-05 -1.5818361e-07 6.231191e-05 3.244477e-05 0.0 -3.9011076e-05
-9.6732765e-05 6.319281e-08 -9.888379e-05 -1.41446635e-05 0.0 1.5982683e-05 -3.93966e-05 2.467136e-07
-6.8374095e-05 -5.0231825e-05 0.0 6.071935e-05 -7.1532995e-05 1.5092435e-07 -8.389982e-05 -3.140709e-05
0.0 3.7372676e-05 -7.153468e-05 -7.462208e-07 -0.00013880222 0.00014865483 0.0 -0.00018255122
1.21048815e-05 6.568546e-07 -1.4971429e-05 -0.00013150064 0.0 0.00016090738 -9.648517e-06 -7.5217747e-07
2.5799016e-05 0.00015086964 0.0 -0.00018435434 6.003233e-06 2.7027517e-07 1.4212036e-06 -5.3858606e-05
0.0 6.6124296e-05 9.588583e-05 2.2907858e-07 8.1293605e-05 -4.5099896e-05 0.0 5.5860466e-05
-7.2088034e-05 -1.6441382e-07 -8.626826e-05 3.189435e-05 0.0 -3.9932384e-05 0.00010290454 8.450495e-07
5.2420197e-05 -0.00016855668 0.0 0.00020680018 1.0455515e-05 2.3237124e-07 5.364307e-06 -4.6519046e-05
0.0 5.6922796e-05 -5.490221e-06 8.1413435e-07 -3.6938814e-05 -0.000163815 0.0 0.00019971406
-2.3867458e-05 -3.202186e-07 -5.063338e-06 6.401819e-05 0.0 -7.841296e-05 -1.0194079e-05 -4.2982236e-07
-7.908465e-06 8.613851e-05 0.0 -0.00010532205 -5.1106595e-05 1.6266839e-07 -7.661794e-05 -3.3515862e-05
0.0 4.0167986e-05 -0.00017007254 -1.8810351e-07 -0.00022479294 3.5053206e-05 0.0 -4.5202625e-05
-2.3384942e-05 4.7459102e-07 -7.391395e-05 -9.593513e-05 0.0 0.00011656954 -4.657144e-06 -4.411474e-07
3.0076642e-05 8.8353336e-05 0.0 -0.000108078704 -4.2361702e-05 5.036344e-07 -7.3628464e-05 -0.00010221544
0.0 0.00012384099 2.4342717e-05 5.474376e-07 -2.9866146e-06 -0.00010955514 0.0 0.00013409022
2.2744514e-05 3.7207906e-07 4.4649664e-06 -7.408757e-05 0.0 9.101172e-05 2.839272e-05 1.7333725e-06
-7.790352e-05 -0.000348359 0.0 0.00042506977 -0.00010501613 -1.423939e-06 -0.000104153594 0.0002850799
0.0 -0.00034882108 -3.7327605e-05 -4.2609983e-07 -5.7919686e-05 8.528914e-05 0.0 -0.00010437514
9.266072e-06 5.3733334e-07 6.430334e-06 -0.00010729998 0.0 0.00013153689 5.172833e-05 6.1433286e-07
3.9392686e-05 -0.000122997 0.0 0.00015049406 -8.5279324e-05 6.589681e-08 -0.00012518863 -1.4586787e-05
0.0 1.6611737e-05 -3.5973015e-05 -5.5333794e-07 -2.4054805e-05 0.00011072629 0.0 -0.00013553223
9.0617374e-05 6.3258085e-07 5.4146865e-05 -0.00012593015 0.0 0.00015472187 -1.9235236e-05 -6.1239325e-07
1.2002383e-05 0.00012265265 0.0 -0.00015003371 1.2195405e-05 -1.9396003e-07 4.007157e-05 3.929351e-05
0.0 -4.7669568e-05 1.4618621e-05 -5.0582537e-07 6.725005e-05 0.00010183239 0.0 -0.0001241013
-4.980967e-05 2.9713914e-07 -9.052605e-05 -6.0566166e-05 0.0 7.315243e-05 -5.7209477e-06 8.584159e-07
-6.367513e-05 -0.000172726 0.0 0.00021057701 1.7484825e-05 2.699607e-07 4.87025e-07 -5.3697313e-05
0.0 6.6014196e-05 -1.6152178e-05 -1.904311e-07 -1.12412445e-05 3.8393366e-05 0.0 -4.673993e-05
-6.73995e-05 -1.3496311e-06 -1.744876e-05 0.00026972595 0.0 -0.0003304573 4.0784027e-05 2.7897852e-07
3.6919184e-05 -5.5810902e-05 0.0 6.832698e-05 -2.1335736e-05 2.3005248e-07 -4.2829903e-05 -4.6453613e-05

exp_avg_sq f4 [128, 6]
00000000: e48d 0f36 ca5d 1e2d ffed a136 95f6 cb34
00000010: 0000 0000 ac68 1a35 66e5 ad35 5e14 1d2d
00000020: 4d21 9b36 6a30 ca34 0000 0000 79d6 1935
00000030: 02bd 2034 a0e0 b42b b336 2c34 65b8 d333
00000040: 0000 0000 e414 5f34 6e0d c233 3e91 5c2b
00000050: 62c9 0734 d78d 1033 0000 0000 23de 6133
00000060: 446c c034 be0f 0f2c c9f0 1a35 d8bd d533
00000070: 0000 0000 9596 3834 adc6 2434 7674 932b
00000080: 0019 8734 43b9 4033 0000 0000 5a36 8d33
00000090: 2a3e a434 847d 032c 3472 2135 37aa a633
000000a0: 0000 0000 50c4 fc33 9a2b 0535 b36e f12b
000000b0: 9771 1935 537d 9933 0000 0000 9caa e933
000000c0: 3f0e 3935 55ce 062c 2c2b 6a35 6432 3234
000000d0: 0000 0000 a463 cb34 f29d 4b35 6f88 352c
000000e0: 7e39 8235 7cd2 0c34 0000 0000 626e 7b34
000000f0: 79dd 0e35 1fac 0b2b 8a26 1e35 4ba1 da32
00000100: 0000 0000 a5dd 2433 b67d a235 c355 cc2c
00000110: 9e6a 7136 3803 8434 0000 0000 cf23 c834
00000120: 06c5 2b34 d995 902b eb64 5934 e3f8 4133
00000130: 0000 0000 5bcf 9a33 cf1c d834 04d2 402c
00000140: 40c2 8f35 02a0 f833 0000 0000 8712 3e34
00000150: b895 0e33 0f90 1d2a 45cb 3b33 3ee1 9832
00000160: 0000 0000 88e9 3833 334c e134 0017 312c
00000170: 0b8e 2435 4e84 8a34 0000 0000 af53 2735
00000180: 9eba 1334 6d36 ed2a f56a 9534 effb d532
00000190: 0000 0000 b951 5233 8f15 5c34 4764 3e2b
000001a0: 2b91 a234 6336 c533 0000 0000 0b0c 8134
000001b0: 61f6 2534 5e1f 962b fad9 7334 e0ef 7f33
000001c0: 0000 0000 836b ed33 3bcf 7d35 643b a82c
000001d0: 50a0 be35 2d66 5634 0000 0000 82c7 a134
000001e0: b597 5934 3a0b c82b d7e3 a634 94d2 9433
000001f0: 0000 0000 7f29 f433 24bc 0635 2260 bc2b
00000200: aaeb 5335 4d5e 7533 0000 0000 c2bc bb33
00000210: 486d ce34 a0e8 082c 0b47 3f35 cabe ad33
00000220: 0000 0000 b88d 0434 2963 d834 918d 972b
00000230: dfec 1335 bf41 b934 0000 0000 940d 6d35
00000240: 7431 4135 bde0 842b 9aa1 ab35 f9ef ce33
00000250: 0000 0000 15e4 6a34 d2c1 f635 613a 402d
00000260: a842 8036 38aa 3d35 0000 0000 785c be35
00000270: bb77 0436 8fb6 0c2d ae08 4036 5569 b634
00000280: 0000 0000 56a3 0b35 713a 7c34 1999 a92b
00000290: 0e53 8d34 036a 6533 0000 0000 980e b333
000002a0: 271d 7a35 f8f3 bf2b 1c2c 7635 3647 af33
000002b0: 0000 0000 2b20 2334 336c 9a34 04e0 fd2b
000002c0: 460d 2535 7e3c a833 0000 0000 1a2c 0434
000002d0: e67f 9934 4b13 2a2c 3702 c834 5af6 dd33
000002e0: 0000 0000 2733 2c34 143d f434 72c5 9d2b
000002f0: 0817 3735 6e33 bb33 0000 0000 b164 5034
00000300: 7150 6e34 d81e e52b 78b2 2135 cba6 a533
00000310: 0000 0000 ed28 0a34 24f4 d734 cd77 b72b
00000320: a2c9 0b35 8ed0 9833 0000 0000 9fcc 0e34
00000330: 33e4 3b33 c6af 022b 032d aa33 4a09 0c33
00000340: 0000 0000 5b30 9433 c55d 1735 e71e 6a2c
00000350: 3604 9f35 e386 1c34 0000 0000 c218 7634
00000360: bc34 9034 340a db2b 805b cd34 fc78 c333
00000370: 0000 0000 0905 4434 c9f1 2735 9255 732c
00000380: 2a0e 8b35 9fbb b234 0000 0000 53d6 5635
00000390: ce83 bb34 456e 082b 448a 1c35 4f0e 4a33
000003a0: 0000 0000 52e6 f233 bac8 b034 1724 232b
000003b0: 1e51 ba34 477c 5d33 0000 0000 4030 0134
000003c0: 1bec 0836 344e de2c 2c43 6436 b2a5 9534
000003d0: 0000 0000 1ca4 d834 b62c ad34 bb10 e12b
000003e0: a9bc 4e35 bbbb 9133 0000 0000 ad8a dd33
000003f0: a4d8 1d34 ad8a 222b 4955 0d34 e4ce 0633
2.1391252e-06 9.0020855e-12 4.8258803e-06 3.7991109e-07 0.0 5.752179e-07 1.2956268e-06 8.928939e-12
4.6232367e-06 3.7660658e-07 0.0 5.730904e-07 1.4969922e-07 1.2852115e-12 1.6038648e-07 9.858994e-08
0.0 2.0776093e-07 9.036272e-08 7.8361265e-13 1.2646117e-07 3.3656615e-08 0.0 5.2588927e-08
3.584156e-07 2.033026e-12 5.771986e-07 9.953118e-08 0.0 1.7191117e-07 1.5345968e-07 1.0477303e-12
2.51639e-07 4.4871978e-08 0.0 6.5757106e-08 3.059261e-07 1.8685895e-12 6.014336e-07 7.760939e-08
0.0 1.17703735e-07 4.960981e-07 1.7154805e-12 5.7162237e-07 7.147414e-08 0.0 1.0880942e-07
6.89386e-07 1.9157083e-12 8.7234616e-07 1.6595874e-07 0.0 3.7884195e-07 7.5853234e-07 2.5797383e-12
9.702487e-07 1.311509e-07 0.0 2.3416354e-07 5.322141e-07 4.9621586e-13 5.891567e-07 2.5451888e-08
0.0 3.838581e-08 1.2106527e-06 5.80755e-12 3.5973858e-06 2.4589258e-07 0.0 3.7278957e-07
1.5997293e-07 1.0273406e-12 2.0246414e-07 4.5162675e-08 0.0 7.2089016e-08 4.0254096e-07 2.7401423e-12
1.0710864e-06 1.1577505e-07 0.0 1.7701869e-07 3.319812e-08 1.3994382e-13 4.3724203e-08 1.7797557e-08
0.0 4.3053234e-08 4.1964958e-07 2.516598e-12 6.130146e-07 2.5800767e-07 0.0 6.2334124e-07
1.3758333e-07 4.2137423e-13 2.7831234e-07 2.491103e-08 0.0 4.896876e-08 2.049694e-07 6.764072e-13
3.0280475e-07 9.18342e-08 0.0 2.4036885e-07 1.5456455e-07 1.0666847e-12 2.2710438e-07 5.958998e-08
0.0 1.1055729e-07 9.4551405e-07 4.781441e-12 1.420276e-06 1.9967474e-07 0.0 3.0133748e-07
2.026489e-07 1.4213971e-12 3.1085685e-07 6.930091e-08 0.0 1.13696835e-07 5.019267e-07 1.3384886e-12
7.894656e-07 5.7129274e-08 0.0 8.742201e-08 3.8450003e-07 1.9455895e-12 7.1256426e-07 8.0906446e-08
0.0 1.2345015e-07 4.0305284e-07 1.0768488e-12 5.510646e-07 3.4506772e-07 0.0 8.830914e-07
7.1970067e-07 9.441542e-13 1.2787525e-06 9.636273e-08 0.0 2.1875924e-07 1.8384837e-06 1.0926899e-11
3.822457e-06 7.065569e-07 0.0 1.4183015e-06 1.9739225e-06 7.998615e-12 2.8615282e-06 3.397678e-07
0.0 5.201922e-07 2.349059e-07 1.2050665e-12 2.6323727e-07 5.3414634e-08 0.0 8.3379916e-08
9.317468e-07 1.3639081e-12 9.170633e-07 8.162026e-08 0.0 1.519226e-07 2.876346e-07 1.8038908e-12
6.1486605e-07 7.834113e-08 0.0 1.2309502e-07 2.859153e-07 2.4169163e-12 3.7254514e-07 1.03359255e-07
0.0 1.6037357e-07 4.5492982e-07 1.1210323e-12 6.820633e-07 8.717221e-08 0.0 1.9408141e-07
2.2194742e-07 1.627999e-12 6.023688e-07 7.713751e-08 0.0 1.286714e-07 4.0224506e-07 1.3036183e-12
5.207495e-07 7.1159874e-08 0.0 1.3299221e-07 4.3746876e-08 4.642921e-13 7.9244295e-08 3.260474e-08
0.0 6.900583e-08 5.6388336e-07 3.3270554e-12 1.1847649e-06 1.4577704e-07 0.0 2.2919542e-07
2.686046e-07 1.5563718e-12 3.82508e-07 9.102402e-08 0.0 1.8255754e-07 6.256419e-07 3.4579878e-12
1.0360429e-06 3.3291596e-07 0.0 8.0033095e-07 3.4927365e-07 4.8469936e-13 5.831573e-07 4.7044804e-08
0.0 1.1310898e-07 3.2928602e-07 5.795932e-13 3.470422e-07 5.1568602e-08 0.0 1.2031614e-07
2.040301e-06 6.318302e-12 3.4013747e-06 2.7873972e-07 0.0 4.035254e-07 3.2256293e-07 1.5991855e-12
7.7015517e-07 6.7862366e-08 0.0 1.03163394e-07 1.4700578e-07 5.7746413e-13 1.3162675e-07 3.1387472e-08

exp_avg f4 [128]
00000000: eac7 eab9 fc8a b73a 4f9d e7b8 8c55 22b9
00000010: b8b3 8138 f12f 7d39 82e2 1a39 4873 3fba
00000020: c285 283a 82fa 40ba fbae 8a39 e116 6b39
00000030: 58ba 28b9 46ce 583a ee77 6e39 ccdf 503a
00000040: 7b4f a4b9 e18c dcb9 caef 2639 0a0a 41b9
00000050: a185 f339 845c e2b9 5f36 013a 5373 0c3a
00000060: cdeb be39 5c5b de3a aea9 b6ba e4a3 dab9
00000070: b0db 093a f79c 1d3a 9140 8738 dcf6 0dba
00000080: 7d4b 223a 931d 1dba a50c 47b9 45c6 01ba
00000090: ca77 9839 2e3c 5c3a ac85 8a39 866d 43b9
000000a0: 6a21 adba 4126 8f39 c016 6c39 7572 97b9
000000b0: 7bf3 a637 a9a3 71b8 1612 44b9 a440 0539
000000c0: cae2 86b9 6491 25ba dbc0 44b9 8c13 45b9
000000d0: 9b41 003a f607 9d39 68c6 8239 f141 a539
000000e0: 4073 c137 ead3 cab9 55db e7b9 8a59 483a
000000f0: 5473 1f3a eacc 29b9 8633 b839 1785 fd38
00000100: f12e 2a39 ba07 43b9 7e9f f337 22e7 63ba
00000110: ddc2 9038 8545 25ba d49a e2ba 55c2 9cb9
00000120: 1822 a3b9 48f9 19b9 7cd4 f8b9 ba41 c339
00000130: 37ea e539 4835 183a 6bec 9439 a9c2 0eba
00000140: 9f7c 11ba 2dad 06ba 9696 273a e327 9239
00000150: e8e4 453a 1030 533a cb5f b2b7 220a f4ba
00000160: afb7 90ba c497 093a 525e 8ab9 5a29 aa37
00000170: d23a 2fb9 a720 0db8 723f 9fb8 4aa5 4ab9
00000180: 021e 91ba cc7e 2d38 9a9d 9bb9 f126 1eba
00000190: e589 843a a7f9 2739 f867 5bba 7bcd 9ab9
000001a0: dbbf 2bb9 09a4 eb39 c629 2eb9 969e 0b39
000001b0: 60a7 beb7 b770 86b9 0b0a beb9 c590 a8ba
000001c0: 396d 3b39 a823 a139 7eec 443a 11df 1eb9
000001d0: c7b1 f4b9 f2ca 413a c79b 1eba c645 8339
000001e0: a1a7 34b9 e8bd 6bb7 f8e3 7c3a f9ed d3b9
000001f0: 8044 4b39 0289 653a 7711 353a d0b4 3139
-0.00044780906 0.0014003213 -0.00011044239 -0.00015481393 6.1846746e-05 0.0002414582 0.00014770965 -0.000730325
0.0006428623 -0.00073615473 0.00026451782 0.0002241987 -0.00016091147 0.0008270483 0.00022742126 0.00079679186
-0.00031339735 -0.00042066633 0.00015920322 -0.00018409654 0.00046448133 -0.0004317501 0.00049290614 0.0005357761
0.0003641531 0.0016964483 -0.0013936067 -0.00041702308 0.0005258871 0.00060124643 6.449328e-05 -0.0005415508
0.0006191058 -0.00059934816 -0.0001898283 -0.0004950504 0.0002908095 0.00084013015 0.00026421004 -0.0001863745
-0.0013208811 0.00027303587 0.00022515189 -0.00028886241 1.9902121e-05 -5.7611298e-05 -0.00018698754 0.00012707949
-0.00025727443 -0.00063159154 -0.00018763861 -0.00018794666 0.00048925885 0.00029951305 0.00024943356 0.00031520383
2.306106e-05 -0.0003868633 -0.00044223169 0.0007642737 0.0006082554 -0.00016193432 0.00035133603 0.0001208877
0.0001622995 -0.00018599528 2.9042127e-05 -0.0008693804 6.902751e-05 -0.00063046097 -0.0017288574 -0.00029899427
-0.00031115185 -0.00014684082 -0.0004746056 0.00037242268 0.00043852787 0.00058062794 0.00028404905 -0.0005445877
-0.0005549881 -0.00051374995 0.00063929835 0.00027877008 0.00075490633 0.0008056173 -2.126386e-05 -0.0018618742
-0.001104107 0.000524875 -0.00026391685 2.0284835e-05 -0.00016711213 -3.364743e-05 -7.5935284e-05 -0.00019325796
-0.0011071565 4.1364503e-05 -0.00029681326 -0.00060330244 0.0010111897 0.00016019364 -0.00083696796 -0.00029526264
-0.00016379303 0.0004494491 -0.00016609495 0.00013315151 -2.2727705e-05 -0.0002564245 -0.00036247107 -0.0012860527
0.00017874398 0.0003073488 0.0007512047 -0.00015151153 -0.0004667176 0.0007392607 -0.00060504343 0.00025038252
-0.00017228584 -1.40513075e-05 0.0009647007 -0.0004042236 0.00019385107 0.00087560725 0.00069072045 0.00016947393

exp_avg_sq f4 [128]
00000000: 1353 0e37 0364 0937 102c a535 2edd 4935
00000010: 2216 0036 18b2 8435 645e e935 9ef2 d835
00000020: 8b95 f135 2e18 2236 d7f5 f934 bd73 b536
00000030: 4aec 8335 e33a 2b36 8ca6 0c34 7c9f 1e36
00000040: 785d cd34 8ce4 1d35 4584 8735 a932 9736
00000050: 3bfc b435 39e9 a835 54d5 ef35 1554 8235
00000060: d9ab 6635 bb95 2b37 7628 fe36 3128 9935
00000070: aa36 ac35 bf71 e235 beea 1a36 7649 8c35
00000080: 5f55 cd35 eacd a335 157e eb34 2d71 5236
00000090: 3493 c435 1341 5936 efff eb34 e36d 1035
000000a0: e2fd c236 c36f c935 7fcc 1235 8bd4 1d36
000000b0: aa11 6a33 908b 1335 4c58 ba35 024f 0335
000000c0: a086 8735 316d 9736 5580 7e35 5715 7035
000000d0: 809f 3f36 b0fb ed34 bafb 5036 f56a 2c36
000000e0: 983a b736 e928 1d35 af4a b535 f0da 0d36
000000f0: eb0d 1136 002f 9b34 7b08 2335 4094 4b35
00000100: 00b1 1134 725c 8434 7ac7 b334 86f7 cc36
00000110: 17cf ef35 76a7 9635 d360 1037 f079 4e35
00000120: 0011 b234 c96b 1135 c986 b735 070f 0735
00000130: 07ca 3635 1458 0d36 b3a3 b434 7289 3436
00000140: 76fd 2536 73ab e435 7937 c935 11ea 0e36
00000150: fd38 2b36 fe9c 2a36 b996 0834 f26d 5437
00000160: 1b19 ab36 6e06 6536 48c6 c834 8bcc 9935
00000170: 2396 2035 7b89 0336 cd7f 1936 ee49 3134
00000180: 4997 b136 1c20 3036 d84a a635 c2b0 2d36
00000190: d72d 5536 b6c3 0634 d418 7536 0a7c c135
000001a0: 60f9 fb34 b334 7737 8b28 c836 a95a b533
000001b0: 3889 ee35 f4eb 0036 e8e1 6f35 b33d 3337
000001c0: 5f16 7835 f7c3 b135 f216 6537 1d82 5035
000001d0: dc0f 8735 b967 5d36 d614 5e36 6d5c 0036
000001e0: 0dec 0c36 b27e 2c36 4cb5 8236 68bf 3d35
000001f0: 0ec5 a035 52ed 3836 e39a a835 22fd 0d36
8.483202e-06 8.189122e-06 1.2306282e-06 7.5200194e-07 1.908637e-06 9.886598e-07 1.7387324e-06 1.6163865e-06
1.7999422e-06 2.4153956e-06 4.6558736e-07 5.407694e-06 9.82903e-07 2.5515262e-06 1.3099105e-07 2.3636667e-06
3.8252233e-07 5.881964e-07 1.0096779e-06 4.5060483e-06 1.3484454e-06 1.2584852e-06 1.7868974e-06 9.710226e-07
8.593175e-07 1.0227256e-05 7.5745e-06 1.1411086e-06 1.2830908e-06 1.6871417e-06 2.3084426e-06 1.0452193e-06
1.5298536e-06 1.2204375e-06 4.3863898e-07 3.1358315e-06 1.464598e-06 3.2373398e-06 4.3958377e-07 5.3804087e-07
5.8112064e-06 1.5008194e-06 5.468682e-07 2.351854e-06 5.4498436e-08 5.496486e-07 1.3883778e-06 4.8916274e-07
1.0097465e-06 4.5128622e-06 9.480912e-07 8.943802e-07 2.855406e-06 4.4327817e-07 3.114094e-06 2.5692254e-06
5.460646e-06 5.854659e-07 1.3507287e-06 2.1138076e-06 2.1614785e-06 2.8905197e-07 6.073457e-07 7.5839125e-07
1.356857e-07 2.465418e-07 3.3486486e-07 6.1084893e-06 1.7867159e-06 1.1224608e-06 8.6056125e-06 7.691842e-07
3.3167453e-07 5.417356e-07 1.367379e-06 5.0313287e-07 6.809427e-07 2.1061905e-06 3.364672e-07 2.6902094e-06
2.473445e-06 1.7037222e-06 1.4991812e-06 2.1295893e-06 2.5514157e-06 2.5423356e-06 1.272082e-07 1.2661783e-05
5.09912e-06 3.4127402e-06 3.7397172e-07 1.1458918e-06 5.982312e-07 1.9600545e-06 2.2873166e-06 1.6511305e-07
5.292623e-06 2.6244734e-06 1.2389746e-06 2.5881895e-06 3.1766156e-06 1.2550922e-07 3.6522297e-06 1.4415721e-06
4.6933837e-07 1.4734617e-05 5.9651843e-06 8.44496e-08 1.7772318e-06 1.921083e-06 8.9363175e-07 1.0683597e-05
9.2419754e-07 1.3244561e-06 1.3654806e-05 7.767538e-07 1.00629e-06 3.299194e-06 3.3092706e-06 1.9127285e-06
2.0999025e-06 2.5703744e-06 3.8954076e-06 7.068652e-07 1.1978279e-06 2.7556275e-06 1.2562053e-06 2.115798e-06
